modeling/output/lstm_model_checkpoint.pth (torch, 327549 bytes, 6 tensors)

lstm.weight_ih_l0 f4 [512, 26]
000000 59 d2 81 3d 55 1d e0 3c 3b 81 4e 3d fa 1d 43 bd
       0.06338949 0.027357737 0.050416213 -0.04763601
000010 d0 63 35 3d 35 a9 8b 3d 1d 50 81 bc 73 0a 30 3c
       0.04428464 0.06819383 -0.015785271 0.010744679
000020 77 48 a5 bd 57 d6 7c 3d 91 5d c6 3d c8 0c bd 3c
       -0.08070462 0.061727848 0.09685815 0.023077384
000030 8a f0 ce 3d a3 35 6d bd d4 af e1 3b b9 fd 11 3b
       0.10104473 -0.05791248 0.0068874154 0.0022276475
000040 6f f7 2e 3d 2a 4a 91 bc 13 6c f0 bc 10 0c f5 bd
       0.04271644 -0.01773556 -0.029348409 -0.11965191
000050 8a bb 26 bd 1d c6 ab bd 95 47 47 bc 96 63 ef bc
       -0.040706195 -0.083873965 -0.012163063 -0.029222291
000060 ac b6 bd bd 89 72 57 3d 38 d1 83 bc f1 fc 6f 3d
       -0.092633575 0.052599464 -0.016090974 0.058590833
000070 40 70 0e be e1 63 6f 3d 45 09 eb 3c 0b 7c 10 bd
       -0.13910007 0.05844486 0.028690943 -0.035274547
000080 32 f6 83 3d 0d 98 54 3c a1 87 7f 3d a0 4a 23 3e
       0.064434424 0.012975705 0.062385205 0.15946436
000090 ba 41 8c 3d 76 6c 8c bd 60 0a 56 bd 79 77 5a bd
       0.06848474 -0.06856625 -0.052255988 -0.053336594
0000a0 6b 50 c1 3d 65 0a 54 3d 2a d6 2d 3d 95 27 30 bd
       0.09439167 0.051767725 0.04244057 -0.0430065
0000b0 3e b2 4c bd 91 56 0e be 67 4b 50 3c ee e7 87 3d
       -0.049974672 -0.1390021 0.01271329 0.06636034
0000c0 b8 37 bf bd 43 25 01 bd ee 5e a0 bc d3 63 cb bd
       -0.093367994 -0.031529676 -0.019576516 -0.09931149
0000d0 d0 5f b8 bc 76 4e 16 bd e5 84 dc 3b 94 95 bd bd
       -0.022506624 -0.03669592 0.0067297095 -0.092570454
0000e0 28 a4 d0 3d e6 67 04 be c9 bc ac 3d bf 65 05 3d
       0.1018756 -0.12930259 0.084344454 0.032567736
0000f0 a8 2a 53 bd 80 9a c9 bd 6e db 80 bd 52 5c 0d 3d
       -0.051554352 -0.09843922 -0.06291853 0.03451187
000100 e7 82 90 bd c5 da df 3d b6 35 13 be df 23 8c bd
       -0.07056218 0.10930399 -0.14375958 -0.06842779
000110 89 98 3b bd 83 9f b5 3b c8 44 d6 3d 3a 78 22 3d
       -0.045799766 0.005542697 0.10462338 0.03966544
000120 86 b5 2d be 66 c0 2b 3b 0e 3a 0c 3d a3 ac b5 bd
       -0.16963777 0.0026207208 0.034235053 -0.088708185
000130 e3 d1 df 3a 8c 0e 32 ba c1 ac 3e bd bd fd 28 3d
       0.0017076101 -0.0006792329 -0.04655147 0.04125761
000140 fd dd 14 be 8e 50 49 3d c6 81 a0 bd 55 06 be 3c
       -0.14537807 0.04914909 -0.07837252 0.023196379
000150 1d 5f 29 3d 5a 22 e9 3d 92 24 8b bd 14 5d 40 bd
       0.041350473 0.11383505 -0.067940846 -0.046963766
000160 7b 9e c9 3d d1 e2 71 3d 10 77 99 3d d5 fe 84 3d
       0.09844681 0.0590542 0.074934125 0.06493918
000170 85 7c 49 bd a5 a9 4d 3c 6f d4 37 bc 67 78 ce 3d
       -0.049191017 0.012552653 -0.011220082 0.10081559
000180 df 6d a9 bd 4b 10 98 bd 8a b5 3b bb 4b 3d 9a 3d
       -0.082729094 -0.07424983 -0.0028642141 0.07531222
000190 40 28 cf bd 5f 30 03 bd 1b f7 26 bc 2a 68 22 3d
       -0.10115099 -0.032028552 -0.0101907505 0.03965012
0001a0 a0 5a 45 3d 16 0b 39 3d 12 f7 81 ba dc 96 85 bd
       0.04818213 0.045176588 -0.0009915552 -0.06522915
0001b0 73 eb 2b 3d b8 a3 25 bd 34 38 ff 3d 95 fe da bc
       0.04197259 -0.040439337 0.12461892 -0.026732722
0001c0 27 d9 f3 bc 7b 91 41 3d 3e 68 e2 3d 8d 74 ca 3d
       -0.029766632 0.04725788 0.11055039 0.098855115
0001d0 17 5e ac bd 83 01 12 3d 88 bf 22 bd 89 f5 9c 3b
       -0.08416384 0.035645973 -0.03973344 0.0047900123
0001e0 54 1f ba bc 17 b4 d0 3d 8e 2e 5a bd 74 33 bd bd
       -0.022720017 0.101905994 -0.053267054 -0.092383295
0001f0 b1 a2 fc bb 03 34 b7 3d da 4d 62 3d 9a e2 39 bd
       -0.007709824 0.08945467 0.055250026 -0.04538212
000200 d5 2f 61 bd 81 77 0e 3e a4 2f c2 bd 08 5a a5 3d
       -0.054977257 0.13912775 -0.09481743 0.08073813
000210 07 6b de 3d ae ea f0 bd b8 05 9a bd a9 34 2c be
       0.108602576 -0.117635116 -0.07520622 -0.16816963
000220 83 ff b2 bc 38 96 9f bc c3 9c 12 be c2 32 97 3c
       -0.021850353 -0.01948081 -0.14317612 0.01845682
000230 d4 74 a5 bc 04 5a 79 bc b2 92 ef bc bf e7 9c 3d
       -0.02019731 -0.015219215 -0.029244754 0.076613896
000240 15 43 7b bc 62 64 dc bc a4 18 7f 3c 64 c9 45 bd
       -0.015335818 -0.026903335 0.01556984 -0.048287764
000250 c2 95 12 3d af 10 ae 3b ba 4e 81 bd a3 b1 19 39
       0.03578735 0.0053120474 -0.06313844 0.00014657392
000260 47 69 71 bd 1b 6a ab bc 26 26 49 bd ed fc 83 3d
       -0.05893829 -0.020924618 -0.049108647 0.06444726
000270 6b c1 5e 3c d4 f7 7d bc b3 16 96 3d 3f 85 9a 3d
       0.013595919 -0.015500981 0.07328548 0.07544946
000280 d5 54 37 3e 15 df a1 3d 18 a4 2c bd f0 a5 2a bd
       0.17903455 0.07903878 -0.04214868 -0.041662157
000290 5b 15 31 3e 4e 32 0e bd e7 59 d7 3d 6a b4 32 3d
       0.17293303 -0.034715943 0.105151944 0.043629088
0002a0 47 68 19 3d 31 d9 e0 3d 2f ce b7 3d 92 31 1c bb
       0.037452962 0.10978926 0.08974873 -0.0023833257
0002b0 d2 0c a8 bc d0 8c 98 3d 72 24 ae 3d 43 17 36 bd
       -0.020513926 0.07448733 0.08503045 -0.044455778
0002c0 07 64 71 bd cf 63 1a 3c d1 75 00 be 89 95 de ba
       -0.058933284 0.00942321 -0.12544943 -0.0016981821
0002d0 96 b5 d9 3c fd b9 ec 3d 06 70 02 be 80 7d a8 3c
       0.026575845 0.11558912 -0.12738046 0.020567656
0002e0 fe ef ab 3d 3c fb 82 bd 81 42 9e 3b 89 27 10 be
       0.08395384 -0.063955754 0.004829705 -0.14077581
0002f0 43 bd a7 3c 27 1b 18 3d 76 d3 32 bc 6b 03 04 bd
       0.02047599 0.03713527 -0.010914674 -0.032229822
000300 bc bf 22 bd 31 7a 13 3c f8 74 d6 bc 02 2f 95 3d
       -0.039733633 0.009001301 -0.026178822 0.07284357
000310 9a 78 0e bd f5 54 69 bd 4f 50 50 bd 42 1e c1 bd
       -0.034782983 -0.056965787 -0.05085784 -0.09429599
000320 53 b4 4b bc 75 da 61 3c 95 98 9a bc 85 11 b4 3c
       -0.012433129 0.013784994 -0.018871585 0.02198101
000330 fc 33 e9 3c ff 52 cb bc 96 24 58 bc 7f af f3 3d
       0.02846717 -0.024819849 -0.0131923165 0.118987076
000340 f1 06 e2 bd 63 d1 b0 3d e8 22 32 bc b4 f7 da 3c
       -0.1103648 0.08633687 -0.01087258 0.026729442
000350 b3 a4 a4 3c 77 5c 16 bd 5a c9 c4 3d a9 40 ef bd
       0.020098066 -0.036709275 0.09608717 -0.11682255
000360 31 71 7e 3d e2 fb a9 bd c8 24 a9 bd 5f eb 3b bd
       0.062119666 -0.08299996 -0.082589686 -0.045878764
000370 00 0b 09 3d 5b 29 ed 3c 4b 8e af bd 11 33 5a bb
       0.033457756 0.028950384 -0.08572062 -0.0033294598
000380 20 44 4e bc 2a 15 fd bc 3a 16 85 bd 8a 3a 92 3b
       -0.012589484 -0.03089388 -0.0649838 0.004462545
000390 96 c8 3d 3b e4 9d c8 3c 11 17 87 3d cc 72 61 3c
       0.002895867 0.02448935 0.065961964 0.01376028
0003a0 66 9c 80 3c 22 3b 7e 3c 58 2b 4e 3c 7d 79 65 bd
       0.015699577 0.015517028 0.012583576 -0.056024063
0003b0 e4 c0 7e bc b7 c3 1e bb c6 d6 93 bd 33 3d 8b 3d
       -0.015548918 -0.0024225542 -0.07218699 0.06798782
0003c0 bc 28 ae 3d b7 e8 7e 3d 06 12 6e 3d 60 f9 c2 bc
       0.08503863 0.062233653 0.058122657 -0.023800552
0003d0 83 15 02 bd fb ff 3a 3c 76 0e 72 3d 26 2a 96 3d
       -0.031758796 0.01141357 0.059095822 0.07332258
0003e0 18 4c 45 3d 13 8a 82 3d 5e 64 06 bc f3 38 da 3d
       0.04816827 0.06373992 -0.00820264 0.106553935
0003f0 90 d6 36 bd c2 6c 53 bc 58 f7 dd bc ab a4 44 3d
       -0.044638216 -0.012904348 -0.027095482 0.048008602

lstm.weight_hh_l0 f4 [512, 128]
000000 77 c5 5c 3d 25 b6 fb 3c c7 f8 86 bd f0 7e b5 3d
       0.053899255 0.030726502 -0.06590419 0.08862102
000010 1c d8 ba bc 52 b0 ae 3c 62 d4 ae 3b 0d c0 9f 3d
       -0.022808127 0.02132431 0.0053353766 0.07800303
000020 5a 81 de 3c d9 a3 3d bd cb 33 51 3d ef 15 83 bc
       0.027161289 -0.046298835 0.051074784 -0.01600167
000030 52 91 bb 3d 13 22 6d 3d 45 11 a4 bd 1d 2e 25 3d
       0.09158577 0.057893824 -0.080111064 0.04032718
000040 b6 93 8b 3d b7 9d 8f 3d ff 4e c2 3d 95 7b ed bc
       0.06815283 0.070125036 0.094877236 -0.028989593
000050 8c eb b1 3d ff 54 27 3d 13 89 d5 bd 09 c9 70 bc
       0.08687505 0.040852543 -0.104265355 -0.014696368
000060 0b 23 2b 3d e5 d8 01 3d 21 6b 86 bc fc ee 25 bc
       0.041781466 0.031700987 -0.016408505 -0.010127779
000070 fd 40 00 bd dc c6 a6 bc 55 82 c7 bd 43 19 fb 3d
       -0.031311978 -0.020358495 -0.09741656 0.12260678
000080 76 b8 c9 bb ab c8 95 bd 0e 64 cf 3d 91 11 a1 3d
       -0.0061560227 -0.07313665 0.10126506 0.07864679
000090 ba c8 ae bd 09 d5 8f 3d b8 b0 84 bd 86 3a bb ba
       -0.08534379 0.07023055 -0.06479019 -0.0014284409
0000a0 3a 68 d5 bc 73 d2 77 bd 25 d4 67 3d 83 3e 6b 3d
       -0.026050676 -0.060503434 0.0565988 0.057432663
0000b0 8b a8 16 bd dd f3 24 3d 8c 08 4c bc e6 e0 a9 3d
       -0.03678183 0.04027163 -0.01245321 0.08294849
0000c0 1c 3c e8 3c d6 eb 2b bc 82 0c 32 bc 06 9f 72 bc
       0.028348975 -0.010493239 -0.01086724 -0.014808422
0000d0 46 97 81 3c b9 ec 4f bd 0a 68 f9 3c eb a9 9f bd
       0.015819203 -0.050762866 0.030445118 -0.07796081
0000e0 c3 b5 aa 3d 4f ae f8 bb 1f 7b 67 bd 7c 82 26 3c
       0.083354495 -0.0075891386 -0.0565139 0.010162946
0000f0 61 29 a8 bc 84 fa 84 bb b2 18 f6 bc 56 68 06 3c
       -0.020527544 -0.004058184 -0.030041073 0.008203587
000100 74 c3 25 bd 08 5c 28 3a 61 fe da bc 18 e5 86 bd
       -0.0404696 0.0006422405 -0.026732625 -0.06586665
000110 a0 a7 18 3b f9 a1 8c bd 07 6a 87 3b 2d 0c 8b 3d
       0.0023293272 -0.06866831 0.0041325125 0.06789432
000120 07 40 5c 3d f5 43 69 bb 0f 46 a7 bd dc 3a a4 bc
       0.053772 -0.0035593484 -0.081676595 -0.020047598
000130 43 f4 12 bd 9e 86 0f bd 40 95 93 3d 18 b0 1c bd
       -0.035877477 -0.03504049 0.072062016 -0.038253874
000140 de db 58 3d 6d 9f 84 3c b2 10 e5 bd 42 4b 92 3c
       0.052944057 0.016189301 -0.11184825 0.017858151
000150 b5 56 ff 3b b2 36 35 3c ed 69 64 3c 72 69 2d bd
       0.0077923187 0.011060404 0.01394127 -0.04233689
000160 5b 5f 85 bd cc 01 6e 3d 3a 56 88 3d 12 f0 9a 3c
       -0.06512328 0.058107182 0.066570714 0.018913303
000170 6e 09 d6 bd 45 fc 89 3d 3b bc e8 3c 6a bf 56 3c
       -0.10451017 0.0673757 0.028410068 0.01310716
000180 8d f4 7c 3d 2b 5f bf 3c c9 98 16 bd a3 12 85 bc
       0.06175666 0.02336081 -0.0367668 -0.016244238
000190 df 37 d8 bc 0c e4 b1 bd 6d 9e 05 3d 4f e0 d3 3b
       -0.026393829 -0.086860746 0.03262179 0.0064659487
0001a0 d7 c7 a9 bd 56 a2 18 3d 64 ec d1 bc b4 26 d6 3d
       -0.082900696 0.03726419 -0.025625415 0.10456601
0001b0 f7 0c a8 bc 37 5b d8 bd 81 cf a1 bc 99 a9 98 3d
       -0.020513995 -0.10564273 -0.019752266 0.07454223
0001c0 d6 6e 12 3c c2 83 49 3d 1c 39 9b 3d c3 be 80 3d
       0.008937558 0.04919792 0.07579252 0.06286385
0001d0 41 18 8b 3d 5b d1 d7 bd a9 b4 47 bd 08 fa 2c bd
       0.067917354 -0.10537978 -0.048756275 -0.042230636
0001e0 fd 0b 09 bd 48 6a 21 bd 0c 59 91 3c cb 85 3b 3c
       -0.0334587 -0.039408 0.017742656 0.011445473
0001f0 a3 57 14 bc 59 62 b0 3d c5 fc 8c 3d f4 20 8e 3c
       -0.009054097 0.08612508 0.068841495 0.017349698
000200 eb f6 3c bd b9 10 a1 bd 8e 43 4a 3d 61 b1 fd bc
       -0.046133917 -0.07864518 0.04938083 -0.03096837
000210 da 8b 0c 3c 19 f0 01 bd 76 49 83 bd e9 43 ea bc
       0.008578265 -0.031723116 -0.06410496 -0.028596835
000220 77 ee b5 bd b0 c9 cc bd de 5f cd 3d be d3 dd bc
       -0.08883374 -0.09999406 0.10028051 -0.027078506
000230 bd f9 e7 3d 93 d1 e1 bc e0 a4 ef 3c b2 c0 50 bd
       0.11326931 -0.027565753 0.029253423 -0.05096502
000240 7a 6c 30 3a fb c1 d4 bd 14 92 56 3d d7 f1 20 bd
       0.00067300315 -0.10388561 0.052385405 -0.039293136
000250 93 e4 85 3d 17 1a e2 bc b5 7a 7e bd 9a 4f 62 3d
       0.06537738 -0.027600331 -0.06212874 0.055251695
000260 37 85 5e bc 91 5d ae ba 72 1a 34 3c 4c 0b e3 bd
       -0.013581566 -0.0013303031 0.010992633 -0.11086139
000270 02 ca 0a 3d 8c 11 9d bd eb 85 2e 3d 5a 4b 00 3c
       0.033884056 -0.076693624 0.042608183 0.007830465
000280 96 17 87 3d ac ae 11 bd a5 9f bc 3d ce e8 17 3b
       0.065962955 -0.03556697 0.09210137 0.0023179534
000290 ca f6 a5 bd 2a a1 e0 3c fe ff b0 3b a3 df 90 3d
       -0.08103712 0.027420599 0.0054016104 0.07073905
0002a0 c2 a8 dd 3d c3 62 f3 bc 95 67 36 3d 63 aa 94 bb
       0.108232036 -0.02971018 0.044532377 -0.0045369132
0002b0 03 c5 41 bc bc 87 81 bd e2 32 b5 bd 35 b8 d7 bd
       -0.011826756 -0.063247174 -0.08847596 -0.105331816
0002c0 23 c7 57 3c ef 12 da bd 53 37 a4 bd 52 d2 1b 3d
       0.0131700365 -0.106481425 -0.08018365 0.038042374
0002d0 e1 45 2e bc e9 72 d3 bc 25 72 00 3d 68 0b cf bd
       -0.010636778 -0.02581163 0.031358857 -0.101095974
0002e0 23 c1 26 3e 59 16 94 bd 10 39 9b bd c0 08 3d 3d
       0.16284613 -0.07230825 -0.07579243 0.046150923
0002f0 82 0c e7 3d e1 a0 87 bd 9f 19 50 3b 9b ae c3 3d
       0.112816826 -0.06622482 0.0031753553 0.09554788
000300 58 6b 8c bb 81 a8 b7 bc c0 2a 98 3c d6 85 08 bc
       -0.0042852573 -0.022419216 0.018575072 -0.00833269
000310 fe 55 d2 3a 8b 16 a2 bd ec da 1f 3d 41 6a b4 bb
       0.0016047356 -0.07914456 0.03902714 -0.0055058305
000320 23 b8 48 3d ff 26 bc 3c 24 10 f7 bd bf 68 84 bd
       0.04900373 0.022967814 -0.120636255 -0.06465291
000330 24 88 d3 bd 9b 34 fd 3c fe a8 8b bd fc 40 0e 3c
       -0.10328701 0.030908873 -0.06819342 0.008682486
000340 4c 48 ac 3d c2 a9 f0 bd df 4d 31 bd 83 cd a5 bd
       0.08412227 -0.11751129 -0.043287154 -0.08095839
000350 f5 ee f3 3c 06 6e 77 bd a7 94 85 bd 4c 97 ca bd
       0.02977703 -0.06040766 -0.06522494 -0.09892139
000360 88 fb 09 3d 87 95 c4 bd 95 17 83 bc da 5c 75 bc
       0.033687145 -0.095988326 -0.016002456 -0.014975751
000370 a3 06 fa bd ec dd 5b bd 84 56 80 bd ba 75 a5 bd
       -0.12208297 -0.053678438 -0.062665015 -0.08079095
000380 46 af 6d bd cc 64 2c bc b0 38 1b 3d 4b 67 f0 3d
       -0.058028482 -0.010522079 0.03789586 0.117384516
000390 b1 e0 97 3d f6 70 4f bd 4f f5 f5 3c db 1a 06 be
       0.07415903 -0.050644837 0.030024199 -0.13096182
0003a0 24 8f 9a bd 2f 7f ba bd d0 df a2 bd 1e 74 7d bd
       -0.07546833 -0.091062896 -0.07952845 -0.061878316
0003b0 2b 09 87 3d f7 50 9d bd 67 12 e4 3d eb c1 15 be
       0.065935455 -0.076814584 0.111363225 -0.14624755
0003c0 f3 ec b3 bd 01 9d b6 3d 0d 05 05 3e 0d c6 19 3c
       -0.08785429 0.08916665 0.12990208 0.009385598
0003d0 9d 64 bf 3d b8 d3 8f bd 60 6d 31 bd b8 e6 bd 3d
       0.09345362 -0.07022804 -0.0433172 0.09272522
0003e0 96 4d 5f 3c 94 ac e1 b9 f6 db 41 3d 36 74 b4 bb
       0.013629338 -0.00043043925 0.04732891 -0.0055070175
0003f0 e5 23 b7 3d 7d 34 3d bd c9 92 54 3d d7 af d0 3c
       0.08942393 -0.046192635 0.051897798 0.025474472

lstm.bias_ih_l0 f4 [512]
000000 5a ab 59 3d f8 08 ef 3d be c7 8b bd bb 55 72 3d
       0.05314193 0.116716325 -0.06825207 0.05916379
000010 70 32 90 bc 40 22 d7 3d 80 04 52 3d d7 51 5d bd
       -0.017602175 0.105045795 0.051273823 -0.054033127
000020 98 4f b8 3d e3 23 b0 3d ec 8c 2c 3e 93 3d c7 3d
       0.08999556 0.08600595 0.16850632 0.09728541
000030 ff 78 79 3c 67 2d 09 3b e9 36 39 bc 99 ac f4 3d
       0.015226602 0.0020931603 -0.0113045955 0.11946983
000040 d5 f1 d9 3c 87 18 a3 3c 8a 2e 37 3e 9c 53 e8 3d
       0.026604572 0.019909156 0.17888847 0.11344072
000050 5e 39 0c 3d bd 17 7c bd b0 55 ee 3d 4b fd f5 3d
       0.034234397 -0.061546076 0.11637437 0.120112024
000060 a5 82 86 bc 73 d0 0c 3d ac 01 b0 3d 7a c2 ca 3d
       -0.016419718 0.03437848 0.08594069 0.09900375
000070 17 7c 83 3d 6e 0b 0e bd 77 18 9c 3d 05 83 a9 3c
       0.06420153 -0.03467887 0.07621854 0.020692358
000080 2c e5 92 bc d9 23 10 3e 10 d9 b0 3d 75 12 38 3e
       -0.017931543 0.14076175 0.086351514 0.17975791
000090 74 d4 94 3d 74 19 77 bd ef 9a 1f 3d e7 a0 07 3c
       0.07267085 -0.06032701 0.038966116 0.008278108
0000a0 1c 6e 03 3e 5c ef 06 3e 80 26 fa 3c c9 58 49 bd
       0.12834972 0.13177246 0.030535936 -0.049156938
0000b0 a6 66 b9 3d 38 95 de 3d fd 34 dc 3d 3c e4 9a 3d
       0.09052782 0.10868305 0.10752294 0.075630635
0000c0 54 6c ac 3d d6 f2 5d bc ad 76 97 3d 89 6d 98 3d
       0.084190995 -0.013546666 0.073956825 0.07442767
0000d0 bc 20 40 3e 1d c6 d5 3d 86 5b 52 3e 4d e3 74 3b
       0.18762487 0.10438178 0.20542726 0.0037366927
0000e0 e4 26 f8 3d 49 82 db 3d fb d1 ad 3d ff fb 7f 3d
       0.12116793 0.10718209 0.08487316 0.06249618
0000f0 60 ec 54 3d 17 1a 54 3d 7a b7 65 3d fd e7 c1 3d
       0.051983237 0.051782694 0.05608318 0.094680764
000100 17 21 50 3d 17 06 28 3e 8f 0a 93 ba f6 77 45 3d
       0.050812807 0.16408573 -0.0011218357 0.048210107
000110 75 9d 8f 3d fe 0c 8c 3d 71 b1 c7 3d 88 ca 81 bd
       0.070124544 0.068384156 0.09750641 -0.06337458
000120 61 61 7f 3d f2 24 b0 3d 54 e4 8c 3d 72 cd ae 3c
       0.062348727 0.08600797 0.06879488 0.021338198
000130 cb 32 3b bd 06 82 57 3d a2 66 f8 3d f5 d5 fc 3d
       -0.045702737 0.052614234 0.12128951 0.123454966
000140 80 ec 0a ba 98 d8 27 3e e9 43 61 3d 3a bd 1f bd
       -0.00052995235 0.16391218 0.054996405 -0.03899882
000150 b9 a7 06 3e b7 02 86 3d 89 c8 f2 3d a5 b9 e3 3d
       0.13149919 0.065434866 0.11854655 0.11119393
000160 17 12 dd 3d e5 f4 41 3e b2 47 6d bd 3a 62 36 3c
       0.10794466 0.18941076 -0.057929702 0.0111318175
000170 39 1e 89 bd e3 d0 e7 3b c9 ad 83 bc 6d 6b 0e bd
       -0.06695218 0.007074462 -0.016074078 -0.034770418
000180 ab 9b 20 3e 65 6b 79 bd 3f 75 5b 3d 4a 3d cf 3d
       0.15684383 -0.060893435 0.05357861 0.10119112
000190 85 27 6b 3d 67 78 7e bc 2f 83 3e 3d d6 25 14 3e
       0.057410736 -0.015531636 0.046511825 0.14467558
0001a0 0b 25 33 3e 50 3b ea 3d 67 ba 95 3d a7 61 24 3e
       0.174946 0.11437094 0.07310944 0.16052876
0001b0 67 25 8f 3d 8b c3 04 3e bd c3 44 3d de b8 44 3c
       0.06989556 0.12965219 0.048038233 0.012006966
0001c0 08 13 1f 3e 7e 45 db 3d 59 ef b3 3b f4 98 31 3e
       0.15534604 0.10706614 0.005491179 0.17343503
0001d0 2b 89 39 3d 3d 0a 33 3e 1f 53 72 3c bc 2c 9c 3c
       0.04529683 0.17484374 0.014790325 0.0190643
0001e0 67 02 5b 3d a0 f8 a5 bc 68 d3 87 3d d8 d7 b4 bc
       0.053469088 -0.020260155 0.066321194 -0.022075579
0001f0 7c 94 84 bb 8d 8a b6 3a 22 0c f6 3d 35 b5 00 3d
       -0.004046021 0.0013926789 0.12014033 0.031422812
000200 8d 79 35 bc 7e 10 e6 3d 9d af f2 bc b5 31 80 3c
       -0.011076343 0.112336144 -0.029624755 0.015648702
000210 69 7a a8 3d 8b 45 ec 3b 17 cd 1a 3d 0d 87 e1 3c
       0.08226473 0.0072104386 0.037793245 0.027530218
000220 16 e9 b7 bc 14 fa de bd 5f 34 7a bd f2 ae 65 3d
       -0.022450011 -0.10887542 -0.0610851 0.056075044
000230 3c e9 cb 3d 23 b8 8b 3c 40 ee a6 3d 54 df 87 bd
       0.09956595 0.017055577 0.08150911 -0.06634393
000240 0f a1 e6 3c f1 80 3c 3d b3 9c 18 bd ff 90 01 3e
       0.02815297 0.046021406 -0.037258815 0.12652968
000250 01 f5 fa bc af 99 8c 3c d9 5b a1 bc db 99 96 bc
       -0.030634405 0.017163126 -0.019697117 -0.01838391
000260 b1 9c 16 3d ac 01 e4 bb 84 cc 45 3d 76 b6 87 3d
       0.036770526 -0.006958207 0.048290744 0.066265985
000270 ea 78 5a bd cd 8f 02 3e db e0 3f 3d 24 bb e6 3b
       -0.05333797 0.12750168 0.0468453 0.007041352
000280 f5 37 82 3d 4c 2d f3 bc fc 46 c4 bc 00 43 fc 3c
       0.06358329 -0.029684685 -0.02395963 0.030793667
000290 ea 43 5b 3c 77 16 ab 3d be 37 36 3d 36 bc bf bc
       0.013382891 0.08353894 0.044486754 -0.023405176
0002a0 5b 10 b7 3d 02 e0 b1 3d a5 2d cc 3d 66 8f b8 3d
       0.089386664 0.08685304 0.099696435 0.09011726
0002b0 c1 d3 90 3d d7 1d ca bd 50 ed 76 bc 9c 0f 94 bc
       0.07071639 -0.09868973 -0.015071228 -0.01807385
0002c0 2a 6f e6 3d b0 37 21 bd 7c 0a ab 3d 86 3b d9 bd
       0.112516716 -0.03935975 0.08351609 -0.10607056
0002d0 aa d4 cf 3d 95 b2 5e 3d e7 4c 8c 3d ee e9 53 3d
       0.10147984 0.054369528 0.068506055 0.051736765
0002e0 36 42 a0 3d 73 50 80 bd f5 74 bc 3c 29 4a 07 bd
       0.07825129 -0.062653445 0.023004988 -0.03302971
0002f0 94 86 46 3d 7f ca 3c 3c 6e ac 53 3c 0f 30 20 3d
       0.048468187 0.011522888 0.012919528 0.039108332
000300 91 2a a2 3d 3b 85 81 bc 8d 0b c0 3d 5a 16 32 3d
       0.07918275 -0.0158106 0.09377203 0.043478347
000310 74 72 d6 3d b5 91 a1 3d 18 7b a3 3d fa 8d 07 bd
       0.10471049 0.078891195 0.07982463 -0.033094384
000320 92 01 92 bd e8 68 93 3d 36 a5 00 3e b9 a5 92 3c
       -0.07129206 0.07197744 0.12563023 0.017901288
000330 ec 6c ca 3c a3 71 4a bd 89 15 20 bd b4 d4 d1 3d
       0.024710141 -0.04942478 -0.039083038 0.10245648
000340 76 e4 5d 3d df 13 3c 3c f2 03 89 bd d3 6d 29 bd
       0.054172955 0.011479347 -0.06690206 -0.041364502
000350 9e 2d 4c bd 29 f9 82 3d b3 65 91 bd 07 21 30 bc
       -0.04984819 0.0639518 -0.07099476 -0.010750062
000360 4c 29 58 3c 05 ba 08 bd e5 85 1d bd 3a 3f f4 bc
       0.01319344 -0.033380527 -0.03845777 -0.029815305
000370 f0 5d 81 bd b7 7e 97 3d 5f 5d 17 bd 06 d1 97 b9
       -0.06316745 0.07397216 -0.03695428 -0.000289567
000380 0e 3a 2a bd e5 c4 8e 3d 94 62 e8 bc 3a c7 ed bb
       -0.04155927 0.069711484 -0.028367318 -0.0072564157
000390 cd 1f f5 3c f8 e1 88 bc 33 38 5e 3d 51 c5 97 bd
       0.02992239 -0.016709313 0.054252815 -0.07410682
0003a0 21 33 c2 3d 5f df 95 3c f8 ad 4d bd bb 06 ea bc
       0.09482408 0.018294988 -0.050214738 -0.028567662
0003b0 25 42 69 3d 9a 0c 05 bd 3f fa b0 bc e6 6b ba 3d
       0.056947846 -0.03248272 -0.021603702 0.09102611
0003c0 48 7d 1d bd 02 d8 31 bc b4 76 95 bd 70 59 ac 3d
       -0.038449556 -0.010854723 -0.072980314 0.08415496
0003d0 96 b5 06 bc 22 9f 81 3c d5 33 63 bd ad 8a 11 bb
       -0.008222004 0.01582295 -0.055469353 -0.0022207901
0003e0 01 1c db 3d 42 cf 65 bd 66 96 44 bb a8 e2 60 bd
       0.10698701 -0.05610586 -0.002999687 -0.054903656
0003f0 72 b4 4b bd 19 02 69 3c 93 e9 4d bd f8 11 b6 3c
       -0.049732633 0.0142216915 -0.05027158 0.022225365

lstm.bias_hh_l0 f4 [512]
000000 be d5 6b 3d 24 44 79 3d ff f6 97 3d 2b c5 f6 3c
       0.057576887 0.060856 0.07420158 0.030123314
000010 0c 0c a8 3d e3 53 84 3d 8f 9f af 3d 5c 80 6e bd
       0.08205423 0.064613126 0.08575355 -0.05822788
000020 64 62 2d 3e b5 9e 9f 3d c5 dd 88 3d 32 2f 3c 3d
       0.16932064 0.07793943 0.06682924 0.045943446
000030 5a 31 24 3e 0b 27 80 3d b1 3b 88 3d 6a a6 44 3d
       0.16034451 0.06257447 0.0665201 0.048010267
000040 f6 43 84 3c e1 8f 82 3d 5b 66 cf 3d f4 d0 7a 3d
       0.016145688 0.06375099 0.10126945 0.06123443
000050 2b 2a 91 3b ea 47 dd 3a fe 72 c9 3d b4 2b a0 3d
       0.0044300756 0.0016882394 0.09836386 0.07820836
000060 ca b5 1d bd 8e 05 ec b9 50 cd cf 3d 8e b4 f6 3d
       -0.038503446 -0.00045017566 0.10146582 0.12046157
000070 d8 e6 b2 3d 0e 81 0b 3d 50 c8 af bc 70 14 8d 3d
       0.08735436 0.034058623 -0.021457821 0.06888664
000080 e1 fa 81 3d eb b7 10 3e 44 cb 1c 3e 01 e1 88 3d
       0.063466795 0.14132659 0.15311915 0.06683541
000090 c0 c6 1c 3d 63 63 26 bd a0 61 9c 3d 55 cd 4e bc
       0.03827548 -0.040622126 0.07635808 -0.012622197
0000a0 9a 96 e6 3d bf 44 c1 3d ba 54 a3 bd 17 da 0d bd
       0.11259194 0.094369404 -0.07975145 -0.034631815
0000b0 42 38 1c 3e 9f 5d a5 3d a3 7b 05 3e 70 20 26 3d
       0.15255836 0.080744974 0.13035445 0.04055828
0000c0 6b a9 e8 bb ff a9 52 3c ff fd fb 3d 75 3b 12 3e
       -0.0071002743 0.012857913 0.12304305 0.14280494
0000d0 77 5f 25 3e 97 39 97 3d 1e e7 03 3e 89 e8 41 3d
       0.16149698 0.07384031 0.12881133 0.047340903
0000e0 c1 4a 06 3d a5 6c bc 3d 06 b7 75 3c 56 20 1d 3d
       0.032786135 0.0920041 0.0149972495 0.038360916
0000f0 ba ec 18 bd d0 57 6c 3d 1a d2 21 3e 89 90 46 3d
       -0.037335135 0.057700932 0.15802804 0.048477683
000100 f0 ad 1c bc a1 99 53 3d 3d 65 8a 3d e8 49 94 3d
       -0.009562954 0.051660184 0.06757591 0.07240659
000110 7c 7b ec 3d 34 1b 80 3c 0d 37 7d 3d 13 92 ec 3c
       0.1154699 0.015637971 0.06182008 0.028878247
000120 1d c8 16 3e 7f 2c 23 3e 4d ef af 3d 71 c8 e6 3d
       0.14724775 0.15934943 0.08590565 0.112687
000130 14 e4 87 bd a2 c8 5b 3d 05 a1 34 3e c7 ca e4 3d
       -0.06635299 0.053658135 0.17639549 0.11171489
000140 e0 fc 84 3c c9 40 52 3d 29 16 ca 3d e5 2f 53 3a
       0.016233861 0.051331315 0.09867508 0.0008056148
000150 28 42 ce 3b 9a 71 1e 3d 6a fc 97 3d e5 b6 53 3e
       0.0062945075 0.038682558 0.07421191 0.20675237
000160 5f ae d6 3d 15 b9 79 3e 8e 09 b9 3d d4 f0 0c 3e
       0.104824774 0.2438701 0.090350255 0.13763744
000170 8e 93 46 3d f3 67 48 3d f3 ae c2 bc dc 1b 01 3e
       0.048480563 0.04892726 -0.023765063 0.12608284
000180 5f b3 2b 3d 42 a8 ac bc 96 f3 9f 3d 4c 65 94 3d
       0.04191911 -0.021076325 0.07810132 0.07245883
000190 30 cf c1 3d 1b d4 67 bc 27 a2 68 3d 90 a3 09 3e
       0.09463346 -0.014149691 0.056795266 0.134413
0001a0 d4 af 0e 3e e7 bb 6b 3d fa a2 c2 3d 7f 30 b8 3d
       0.1393426 0.057552245 0.095037416 0.08993625
0001b0 85 62 6c 3d 3c 2f 34 3d 5f 84 4c bd ea 2b 74 3d
       0.057711143 0.04399036 -0.049930926 0.059612192
0001c0 90 75 94 3d 4b 6b d7 3c d8 08 aa bc fc 7b b6 3d
       0.07248986 0.026296278 -0.02075617 0.08910367
0001d0 af f6 9a 3d cc 3a ab 3d fa ea fb bb af cb f5 bb
       0.075665824 0.08360824 -0.0076879235 -0.0075010876
0001e0 44 82 90 3d 72 9a 6c 3d ed 49 ad bc 9b 64 19 3c
       0.07056096 0.057764478 -0.021153415 0.009362365
0001f0 28 87 ec 3d ea 1d 08 3e ab a8 ac bb 48 fe 85 3d
       0.115492165 0.13292661 -0.00526913 0.06542641
000200 5a 93 8e bc 9a fb b3 3d ff 40 f5 3c 94 09 64 3c
       -0.017404247 0.087882236 0.02993822 0.013918299
000210 2a a6 37 3d fa 04 55 bd 23 bf e3 bc c1 bf ca bd
       0.0448362 -0.0520067 -0.027801102 -0.098998554
000220 9c 76 62 3d 64 48 30 3d 37 f0 8f 3b b3 94 89 bd
       0.055288896 0.043037787 0.0043926495 -0.06717815
000230 dd 5d 58 bd d1 e9 85 3c 37 54 8d 3d 63 ee 73 3d
       -0.05282389 0.016346844 0.06900828 0.059553515
000240 45 76 d7 bc 5a 45 08 3c 08 c4 71 3d 8f ba 9f bc
       -0.026301512 0.008317316 0.05902484 -0.019498138
000250 01 a6 02 3d cc d0 c3 bc 5c 7f fc 3c a7 06 5c 3d
       0.031896595 -0.023903273 0.030822448 0.05371728
000260 40 c5 0a bd 71 25 c3 3d 7a 20 b4 3d a0 95 46 bd
       -0.03387952 0.09528626 0.08795257 -0.048482537
000270 c9 f1 06 3b bd 9a 9f bb 40 fb ba 3a ce ae 38 bb
       0.0020590893 -0.004870741 0.0014265552 -0.0028180364
000280 5e 5d f2 3d 76 31 b6 bc 61 36 99 3d 1e 2b bd bc
       0.11834215 -0.022240382 0.07481075 -0.023091849
000290 2b b4 49 3d 60 2b b0 3c 20 f3 28 3c ae 03 91 bc
       0.049244087 0.021505058 0.010311872 -0.01770195
0002a0 01 d5 93 3d ab 75 93 3d a3 65 21 bd d0 de cb 3c
       0.07218362 0.07200178 -0.03940357 0.024886519
0002b0 73 ba b8 bc 63 96 c5 bd f9 01 93 3d 36 c8 82 3d
       -0.022549843 -0.096478246 0.07178111 0.063858435
0002c0 6a 2e 47 bd da 9e b8 3d 80 c5 9b 3a ef cf 1b bb
       -0.04862825 0.090146735 0.0011884421 -0.002377506
0002d0 e3 f9 84 3d df ff 9a 3d ee c8 1e bd bd 17 b1 bd
       0.064929746 0.07568335 -0.03876584 -0.08647106
0002e0 5d 03 13 bd 40 8d 8c bd 57 83 e9 3c fd f8 ae 3c
       -0.03589188 -0.06862879 0.02850501 0.021358961
0002f0 00 ed 26 bb 0c a3 a1 bd 2b 67 9e 3d 09 f2 ed 3d
       -0.0025470853 -0.07892427 0.077345215 0.1161843
000300 76 43 d4 3d 11 d5 74 3c 5f 92 a4 3c a4 68 a8 bd
       0.1036443 0.014943377 0.020089326 -0.082230836
000310 1d 78 ba 3b f0 7d 5c bd 72 3a c3 3d 5f 29 be 3d
       0.005690588 -0.05383104 0.09532632 0.09285235
000320 84 7a 9b 3d 3f 0c f7 3c 52 6b 21 3d 67 7e 13 3d
       0.075917274 0.030157207 0.03940899 0.03600922
000330 64 a1 3f 3d 3c f5 8f bd 63 5d 4f 3d 0e 22 d3 bc
       0.046784773 -0.070291966 0.05062617 -0.025773074
000340 f6 5f a5 3d a3 c0 9a 3d 31 ae b0 3d 77 73 5e 3c
       0.08074944 0.07556274 0.086269744 0.013577334
000350 96 76 4e 3d f3 74 95 bd 18 b1 1f 3d 30 69 10 3e
       0.05040606 -0.07297697 0.03898725 0.14102626
000360 da 99 4d bc f3 45 07 3d 62 3a 79 bd 8a d3 f4 3b
       -0.012548888 0.033025693 -0.060846694 0.0074715065
000370 d9 8a 71 bc 89 bd 96 3d ce 04 de 3d e2 71 fe 3d
       -0.0147425765 0.0736037 0.1084076 0.12424065
000380 0a 72 43 bd 6d 50 21 3d 7a 84 09 3d ac bf 52 3c
       -0.047716178 0.03938334 0.033573605 0.012863081
000390 cb f6 95 3d b2 78 43 bc 31 bb c0 3b a1 5d 8d 3d
       0.07322463 -0.0119306315 0.00588169 0.06902624
0003a0 4f 6f 38 ba dd 75 9f bc b3 da ae bd 71 82 2b 3d
       -0.0007035629 -0.019465381 -0.08537807 0.041872445
0003b0 c2 be e9 bc fc 75 42 3d de e1 8c 3d fe 5c e2 3c
       -0.028533343 0.0474758 0.06879018 0.027632233
0003c0 14 bc b5 3d 0b c4 39 3d 11 5d 10 3d 4c d4 5b bd
       0.08873764 0.045352977 0.035245005 -0.05366926
0003d0 b4 3e 12 bd 9f ec 8c 3d 53 ee 55 3c a1 bd 1c bc
       -0.03570433 0.068810694 0.013057309 -0.009566695
0003e0 3f ed f8 3d c9 35 11 3d 3a 86 46 3d 49 ac 19 bd
       0.12154626 0.035451684 0.048467852 -0.03751782
0003f0 62 20 d6 3d 1d 3c ed bc 7d 75 3b 3d 1d 90 1c 3b
       0.10455395 -0.028959328 0.045766342 0.002388961

fc.weight f4 [5, 128]
000000 0d 14 2d 3d f5 15 87 3d 8c a5 7f bd 04 66 3f be
       0.04225545 0.06595985 -0.062413737 -0.1869126
000010 2e c2 43 bd 2b 4f 9c bd ab d5 44 be 19 d0 74 3d
       -0.047792606 -0.076322876 -0.19222133 0.05976877
000020 f1 0c b0 bd 37 f4 3e bd 16 86 eb bd 05 ac 00 3e
       -0.085962184 -0.04661962 -0.11500184 0.1256562
000030 21 06 a3 bd 8e 06 0d be ed 93 6a bd 4c 61 b4 3d
       -0.07960153 -0.13772032 -0.05726998 0.088076204
000040 5a 8e ac 3d 09 b8 8d bd d8 c2 c6 bd bb 8f 36 3d
       0.08425589 -0.069198675 -0.09705132 0.044570666
000050 90 7b b7 3d 6e 79 b5 3d a2 48 c4 bd b9 95 a4 3c
       0.089591146 0.088610515 -0.09584166 0.020090925
000060 28 a9 a3 bd 9c 31 67 3d 45 54 79 bd 2d af bd 3d
       -0.07991248 0.056443796 -0.06087138 0.09261928
000070 1f 3c 23 bd 7b 35 31 3d 9d 28 d4 bd 39 e6 72 3c
       -0.039852258 0.043263894 -0.10359309 0.014825397
000080 03 80 47 3c 51 21 8b bd a9 b6 02 be 91 34 07 bd
       0.0121765165 -0.06793464 -0.12764992 -0.033009116
000090 2a 0d ec 3d a3 63 21 be 09 bd 05 be 12 2c 68 3d
       0.11525948 -0.15760665 -0.13060392 0.056682654
0000a0 41 f2 fc 3c 05 af 4f 3e f5 94 a5 ba e8 67 8f bc
       0.030877234 0.20281608 -0.0012632894 -0.017505601
0000b0 ad dd 65 bd 8b 1c 2f 3d dd 2d cf bd d1 84 da bd
       -0.05611961 0.04275183 -0.101161696 -0.10669864
0000c0 fb f9 8d bd a5 6c bc 3d 80 3b fa 3d ff ad 04 be
       -0.069324456 0.0920041 0.1221838 -0.12956999
0000d0 b3 a1 19 3e c4 60 b6 bd 11 42 b6 3d a6 13 12 bc
       0.1500309 -0.08905175 0.0889932 -0.008915817
0000e0 2c f4 26 3c e3 aa 0c 3d af 03 ef 3c 66 5e 3a bd
       0.010190051 0.034342658 0.029176561 -0.04550018
0000f0 b8 3a 67 3d 2e 45 e4 3d fa bb da 3d 01 bc 11 be
       0.056452483 0.111460075 0.10680385 -0.14231874
000100 0e 6e 07 bd b1 c2 14 3e 87 7a 45 3d 39 17 c3 3d
       -0.03306394 0.14527394 0.048212554 0.09525914
000110 b2 2b 5d be df 9d 85 bd c1 85 ca 3d 2a 42 84 bd
       -0.215987 -0.06524252 0.09888793 -0.06457932
000120 04 6f a1 3d 84 c5 41 3c e2 3a 8c bc c4 d7 50 3c
       0.07882503 0.011826877 -0.017117921 0.012746755
000130 e5 7e 8c 3c 31 33 52 bd 4c 0c b0 3d 17 2b 01 be
       0.017150352 -0.05131835 0.085960954 -0.12614094
000140 e2 16 45 bc 22 de 13 bd 56 6d be 3c 1f 0b 99 bd
       -0.0120293815 -0.036100514 0.023245495 -0.07472824
000150 ca 61 04 3e a5 d2 37 bd 98 4e 22 3d 23 58 3d be
       0.12927929 -0.04487862 0.039625734 -0.18490653
000160 70 9e 9d bc 84 23 14 3e 6a 83 87 bd a9 e5 13 3e
       -0.019240588 0.14466673 -0.06616862 0.14443077
000170 a6 df 7d bd 8c 7f a5 3d 41 8a a2 3c 89 56 71 3d
       -0.061980866 0.08080968 0.019841315 0.058920417
000180 86 07 42 bb 5a f8 12 bd 2e e3 b5 bd ca e5 ba 3d
       -0.0029606535 -0.035881378 -0.08881222 0.0912586
000190 4f 12 9a 3d 86 a3 06 3e 63 e0 68 bb 89 33 ac 3d
       0.07523023 0.13148317 -0.0035534136 0.08408267
0001a0 a3 9e b1 3c f5 19 5b bc d9 95 de 3c 80 7a d5 3b
       0.02168209 -0.013372888 0.027171062 0.0065148473
0001b0 c6 1d 17 3e 58 16 b3 bd bd 1a 0f bc 38 e9 44 3d
       0.14757451 -0.08744496 -0.008734402 0.048073977
0001c0 72 1c 33 bb b2 27 17 3d 98 52 51 bd 1a 06 eb 3d
       -0.0027330187 0.03690309 -0.05110416 0.11475773
0001d0 fc e9 d2 3d 03 69 97 bd d0 dc 6d bd 61 5d b2 3c
       0.10298535 -0.07393076 -0.05807191 0.021773042
0001e0 1e e2 26 bb 7c 46 73 bd b3 e1 b4 3d 32 ef 67 bd
       -0.0025464366 -0.05939339 0.08832111 -0.0566246
0001f0 87 b6 ab 3d 79 66 10 3e da 09 08 3c ee 3d 16 3d
       0.08384424 0.1410159 0.00830313 0.036680155
000200 23 d3 ee bb 24 6d 3f bd e1 09 54 3d 56 44 b3 3c
       -0.007288353 -0.046734944 0.051767234 0.021883171
000210 b8 9b e3 39 b3 14 82 bd 82 da 90 3d 3d a3 49 3d
       0.00043412833 -0.06351604 0.07072927 0.04922794
000220 d8 ae f5 3d 89 03 4d 3c 9e 18 0d bd f1 89 cd bc
       0.119962394 0.01251305 -0.034447305 -0.02509019
000230 62 a2 8e 3c a9 8a 80 3d da e7 7c b9 ab 87 9a bd
       0.017411415 0.06276447 -0.00024118964 -0.07545408
000240 bd 3f 43 bd 4d 23 a4 bd a3 a9 03 bd 76 50 f5 3d
       -0.047668207 -0.080145456 -0.0321442 0.11978237
000250 be 13 d4 3d 30 28 55 bc d3 5d fb bd d3 d2 3c 3d
       0.10355328 -0.01301007 -0.12273755 0.046099495
000260 9f 98 9a 3d 15 fe 39 bd f8 16 b9 ba 3a 9c f9 3c
       0.075486414 -0.045408327 -0.0014121225 0.030470002
000270 23 83 2a bc 97 72 c5 3c 52 36 8b 3d 95 cf 6c 3d
       -0.010407242 0.024102492 0.0679747 0.057815153
000280 4b 16 db 3d e4 6b db bd 16 8d 9b 3d 65 5d 46 3e
       0.106976114 -0.10713938 0.075952694 0.19371565
000290 0b 29 42 bd 5c 14 92 bd c8 f6 97 bd be 5e de 3d
       -0.047402423 -0.071327895 -0.07420117 0.108579144
0002a0 b4 b8 45 bd 9e 37 a0 3d 12 90 d0 3d 33 13 a9 bc
       -0.04827185 0.07823108 0.10183729 -0.020639038
0002b0 4e 2c da 3c 57 24 1e 3d 4d a3 84 3d e9 ae f4 bc
       0.026632454 0.038608875 0.0647646 -0.02986856
0002c0 40 5a ca 3d fd c8 55 3c af af 8d bd 40 92 b5 bd
       0.09880495 0.013048408 -0.069182746 -0.088657856
0002d0 4e 79 60 3e 91 11 a5 3c f8 bb fa bd 56 df 0a 3e
       0.21921274 0.020149978 -0.122428834 0.13561758
0002e0 b7 05 16 3e 95 6c 10 be 73 4b 4c bd 89 a5 14 be
       0.14650618 -0.14103921 -0.04987664 -0.14516272
0002f0 c0 57 4d 36 e9 88 38 3d c3 79 af bb a7 7b fe bd
       3.0598458e-06 0.045052443 -0.0053550913 -0.124259286
000300 d3 f7 9c 3d 42 09 9e 3d 81 a1 4c bd 5b f9 33 bd
       0.07664456 0.077166095 -0.04995871 -0.043938976
000310 6d 45 2c 3c b4 24 29 3e 5b 5d f2 3d d3 92 a4 ba
       0.010514599 0.16517907 0.118342124 -0.0012555964
000320 59 29 9f 3d 34 39 27 be ec be 8b 3d 08 d9 fe bb
       0.07771558 -0.16330415 0.06823525 -0.007777337
000330 fe ea 60 bd b0 7e de bc 8e 2a b4 bd a6 9a 2b bd
       -0.054911606 -0.027160019 -0.08797179 -0.04189553
000340 11 ac 6b bd 0a 61 18 be ab a1 3c 3d ad b7 86 3d
       -0.057537142 -0.14880767 0.046052616 0.06578002
000350 b2 5b 69 bd 2f 16 1b 3d 9e 72 63 bd 44 d1 90 bd
       -0.056972213 0.037862953 -0.05552923 -0.07071164
000360 8c e8 04 be 5e 8d 49 3c 29 c9 96 3d 9f 5c 73 3d
       -0.12979335 0.012301771 0.07362587 0.059414502
000370 50 58 48 bd ea bf 75 3d 49 62 8d 3c f9 85 45 bd
       -0.048912346 0.059997477 0.01725878 -0.04822347
000380 8c 5c 80 bc 84 00 34 3d 48 b9 62 3d 1c e1 bb 3d
       -0.01566913 0.043945804 0.05535248 0.091737956
000390 81 cf cd 3d 7e fa c8 bd ed 50 ba bc 72 53 98 bd
       0.10049344 -0.098134026 -0.022743667 -0.07437791
0003a0 6c 80 48 bd 07 ee 37 3d 66 ba d5 3d 3e 9b 5e bc
       -0.048950598 0.044904735 0.10435943 -0.013586817
0003b0 7b 40 b6 bb d6 10 88 bd 12 0b 07 3d 94 42 17 3d
       -0.005561886 -0.06643836 0.03296954 0.03692873
0003c0 d2 e4 45 bd 7d f2 66 3d 03 6b 02 3e 68 6a 54 b8
       -0.048313923 0.0563836 0.12736134 -5.0643837e-05
0003d0 c3 d0 48 bd 56 f5 60 bd 29 95 72 bd 11 b1 23 3d
       -0.049027216 -0.05492147 -0.05922428 0.039963786
0003e0 19 b9 c2 bc 35 80 5b bd f9 55 25 3d 7e bd da bd
       -0.023769902 -0.053589065 0.040365193 -0.10680674
0003f0 34 9f b7 3c e9 e6 69 3d 44 0e 3d 3d 0c 37 99 3b
       0.022414781 0.05710498 0.046156183 0.0046757516

fc.bias f4 [5]
000000 75 87 89 3d 9c e1 95 bd d9 1d 43 bd 90 1e cb bb
       0.067152895 -0.07318422 -0.047635887 -0.0061987117
000010 37 de 8b bd
       -0.068294935
