modeling/output/lstm_model_checkpoint.pth (torch, 856997 bytes, 10 tensors)

lstm.weight_ih_l0 f4 [512, 26]
00000000: 90ca 66bd a798 e63b 5dc3 87bd 0103 b43d
00000010: df12 2cbd 635f b5bc 266f 94bd a5c2 a03c
00000020: 6dc3 6ebd 0c68 dbbb d3cb 72bd e179 8e3d
00000030: 29c0 53bd 48ff c6bd 5568 043d 274f 3d3c
00000040: 7fdb 6abd b9d4 553c 8c8d 903d d9f2 a8bd
00000050: be29 b13d 0863 6c3d 156b a3bd 0f23 8b3c
00000060: 273d 89bd 3051 11bc 6569 2b3d 5731 9a3d
00000070: efd5 41bc 5b21 8bbd d773 0abd 0bb4 6bbd
00000080: 629d 893d 1888 70bb 5c66 be3d 02f9 95bd
00000090: 4828 5f3d 3520 453d d541 993d 92fc 5c3d
000000a0: c793 863d 402a 833d c92d a43d c48e fbbc
000000b0: 383c 5ebd 6279 a23d 99e6 993b 4436 82bc
000000c0: 8a0a 88bd ed4a fbbb ff2f 173d 8d3e 9cbd
000000d0: 1502 16bc 1d16 ca3c 0559 7f3c 5ac0 a9bc
000000e0: 2bdc 1cbd 014a 73bc f74d 89bd 9e28 8bbd
000000f0: d3ee 95bb 63a8 cebc 7dd5 943a 3162 16ba
00000100: 75d1 1a3d 2b11 bfbd fa7f 9c3b 05f6 93bd
00000110: b764 0e3d 2b90 da3c efb1 26bd cbcb 3dbd
00000120: 8190 453d 426c 4fbd 2671 00bd e9b6 f3bc
00000130: d2a0 80bd 6a3f 993d 4d54 05bd 061f 5bbd
00000140: ebb9 87bd fc70 f7bc a750 e5bc a57f 313d
00000150: 12f7 4bbd 89ce 41bd 0df1 8f3d e383 adbd
00000160: 65eb e2bc 8e88 843d f792 70bd 9d29 7e3c
00000170: efd9 cbbb 34fc c13d 99ef 1fbc 12df a53c
00000180: 5eca a43d 14dd 153d dd6e 873c bd48 c6ba
00000190: 7a6f 913d b681 b83d 198e acbc aaba a1bc
000001a0: 352b 8bbd 3775 843d c064 c1bc 3519 323d
000001b0: ba12 8b3c d8bc 13bd 7b63 a3bd 1b04 8cbd
000001c0: 44e8 583b 8e40 40bd f4a9 7dbd 6f3a ccba
000001d0: ce16 9a3c f39a b2bd 66fd 7e3d a214 933d
000001e0: c7dd e83c 96fa f3bc 3cfc 9bbd b0ee a1bd
000001f0: 80e7 33bd 7997 85bd d4aa 043d 0675 a23d
00000200: 3859 433d bd2d a3bc 0a27 3e3d 186e e13b
00000210: 85fe 7cbd ff14 94bd 1dde 26bd 55ae 823c
00000220: ec67 733c e62f 943d 7474 05bd e0f0 42bd
00000230: 0d59 87bd 33fe 943c 80c5 d13c 0727 403d
00000240: 67dd 063c b0ca 8dbd 6529 953d 3b73 1b3d
00000250: f9ea 9a3d 88b1 a3bb df07 a73d 1096 36bc
00000260: b81c 8fbd 1125 6abd 0b90 7c3d 3733 b2bc
00000270: 293d 533d 4ad8 363d 42c5 343d d56d 7d3d
00000280: 859e 54bd e86a f1bc 5635 ae3b 5b39 853d
00000290: cf82 183d 9870 9b3d 18a1 dd3b f767 6abd
000002a0: 76a1 2ebd 9e62 643d 8c38 27bc 2df4 9abd
000002b0: 4d42 4c3c 508d edbc 105d f0bc 1f5b 4d3d
000002c0: c7a8 84bc 2a1c 95bd 154d 2a3d c8eb b4bd
000002d0: 8d20 21bd 97fa abbd e31d 9fbc b824 9cbc
000002e0: f8b2 acbd 7073 4e3d ce1d 1c3d 9e97 1b3d
000002f0: 64d3 a63d 2129 ee3c 98c1 1e3d 40d6 743d
00000300: 1bb0 bf3d 2f1d 49bd 0060 da3c a4b6 bfbc
00000310: 470f 833c 4f1e ddbb 3ca6 fb3c aad2 023d
00000320: f8ae 233d a141 0bbd 962a 9dbc 1649 7ebb
00000330: a0d6 06bd ccbf 04bd 27e3 833d c8cd 86bd
00000340: df02 99bc d405 82bd 24f9 ef3b 38c7 b33d
00000350: 8dde 4abd 7214 0cbc 986e 9bbd 21ab 3abd
00000360: 70ad 643d 73bc 173d 80a9 78bc 1470 4d3a
00000370: 1a77 a0bd 2a5f 05bd ca86 f43c cbf7 9abd
00000380: e5cc cabb 6a8e 893d 54e6 85bd 6c07 36bd
00000390: 2761 b2bd 2a57 643d 76e3 b5bd e224 3e3d
000003a0: ff0a 9bbc f16c 37bd 3d41 2b3d b551 283d
000003b0: d93b 3bbd 15f2 1fbd 3203 b83c ac0d ff3c
000003c0: db86 14bd 0017 86bd 8bde babd f21d 613c
000003d0: 17f2 1cbd 578d ddbc 5eaa 343d 2001 03bd
000003e0: 7de8 c03b d4d6 1b3d dcfc 5a3d 4c0b 34bd
000003f0: f5e7 b9bc 92f6 093c 36e5 4b3d 13f2 bcbd
-0.056345522 0.0070372405 -0.066290595 0.087896354 -0.042010184 -0.02214021 -0.072477624 0.019624064
-0.05829184 -0.006695753 -0.059276413 0.0695684 -0.05169693 -0.0971666 0.03232606 0.011554516
-0.057338234 0.013051205 0.07058248 -0.082494445 0.0865054 0.05771163 -0.07979409 0.01698449
-0.06701117 -0.008869454 0.04184856 0.07528942 -0.011830791 -0.067934714 -0.03380188 -0.05754475
0.067194715 -0.0036702212 0.09296867 -0.07322885 0.054481775 0.04812642 0.074832596 0.053951807
0.06571155 0.06404543 0.08016545 -0.030707724 -0.054256648 0.07933308 0.004696679 -0.015895016
-0.06642635 -0.007668844 0.036911007 -0.07629118 -0.00915577 0.024668748 0.015585189 -0.020721603
-0.038295906 -0.014849187 -0.06704324 -0.067948565 -0.004575589 -0.025226777 0.0011355128 -0.00057366776
0.03779741 -0.093294464 0.004775998 -0.07224659 0.034764018 0.026680073 -0.040697034 -0.04633693
0.048233513 -0.050640352 -0.031357907 -0.029750304 -0.06280674 0.074827984 -0.0325511 -0.053496383
-0.06627258 -0.030205242 -0.02799256 0.043334622 -0.04979617 -0.047316108 0.07028399 -0.08472421
-0.027700135 0.06471358 -0.058733907 0.015512851 -0.006221048 0.09471932 -0.009761714 0.02024797
0.08046411 0.03658779 0.016532356 -0.0015127879 0.071013406 0.090091154 -0.021063851 -0.019742329
-0.067953505 0.064676695 -0.023607612 0.04348107 0.016976703 -0.036068767 -0.07977959 -0.068367206
0.0033097425 -0.046936564 -0.061929658 -0.0015581379 0.018809702 -0.087209605 0.06225338 0.0718167
0.028426064 -0.029782575 -0.07616469 -0.07906854 -0.043921947 -0.06523032 0.032389477 0.07932477
0.047692508 -0.01991927 0.04642395 0.0068795793 -0.061766166 -0.07230567 -0.040739167 0.015952269
0.01485632 0.072356984 -0.03258176 -0.047592998 -0.06608782 0.018187618 0.02560687 0.04691222
0.008231497 -0.06923425 0.07283286 0.03795169 0.07564349 -0.0049955286 0.08155798 -0.011144176
-0.069878995 -0.057164256 0.061660808 -0.021752937 0.051572 0.044639863 0.044133432 0.061872322
-0.05190899 -0.029469922 0.0053164167 0.0650508 0.037234124 0.07589835 0.0067635886 -0.057228055
-0.04263445 0.05575811 -0.010206353 -0.07566104 0.012466979 -0.028998047 -0.02934125 0.050135728
-0.01619376 -0.072807625 0.041577417 -0.08834034 -0.039337683 -0.083974056 -0.01942343 -0.019060478
-0.08432573 0.05040306 0.03811436 0.03798639 0.08145788 0.029072346 0.038758844 0.059774637
0.09359761 -0.049100097 0.026657104 -0.02340252 0.015998496 -0.006747998 0.030718915 0.031939186
0.039961785 -0.033998135 -0.019185346 -0.0038800887 -0.032919526 -0.032409474 0.0643981 -0.065822184
-0.018678127 -0.06348768 0.007323401 0.08778232 -0.049528647 -0.008549796 -0.075894535 -0.045573357
0.055829465 0.037044954 -0.015177131 0.00078368303 -0.07835217 -0.03256146 0.029849429 -0.07566794
-0.006188976 0.067166165 -0.06538072 -0.04444067 -0.087099366 0.05574719 -0.08881275 0.046421893
-0.018926142 -0.04478163 0.041810263 0.041093547 -0.045711372 -0.039049227 0.022462461 0.031134449
-0.03626142 -0.06547356 -0.09124478 0.01374005 -0.038316812 -0.027044935 0.044107787 -0.031983495
0.0058870898 0.038046673 0.0534638 -0.043956086 -0.022693614 0.008420603 0.04977914 -0.092258595

lstm.weight_hh_l0 f4 [512, 128]
00000000: d892 49bd d0b0 063c cbfd a4bc 3dc4 86bd
00000010: b9f5 27bd eeac 8b3d 04cd 6bbd 4275 19bd
00000020: 5ea6 403d a34f 8abd 33c3 bbbd 2fb2 a7bc
00000030: cf24 1f3d 72ed b5bb a3f4 603d 44e7 263c
00000040: ff58 903d c63c 8abd d918 73bc 27e9 883d
00000050: 27bd 163d f613 8b3d 3b87 7bbd 30d2 c9bd
00000060: cc0a 3abc 0df1 853d c6c7 c2bd 8337 85bd
00000070: 9c99 70bd d6b7 71bd f7fd d43b 9099 1fbd
00000080: d471 823d e27d 36bd a751 f43c 8198 7d3c
00000090: 47bf b83d 561b 12bd ba40 9d3d 19f5 b6bd
000000a0: d3db 93bd c4dd 523c 9f51 1f3c cfc7 2d3d
000000b0: 7580 aabd e9ff 82bd 56ba c5bb 5b48 36bc
000000c0: f3eb 79bd d410 80bc 4d56 253d 90b2 fcbc
000000d0: 21fa a83c 6393 163c af9c 99bd a5a2 7abd
000000e0: bce4 9dbd 956f 9a3c 0b9a 69bd 3562 2cbd
000000f0: 37e1 8ebd dcf7 46bd 7d1b c33c 38d3 0b3d
00000100: f473 52bc 2aa5 e0bb fe9f f73c 38a3 883d
00000110: 9535 12bc d106 8c3c 20eb 8d3d f22b 24bd
00000120: 54da 73bd 139b bc3d 95f1 73bd 1238 2ebb
00000130: cb6b 43bd 69e1 993c 7fb5 5fbd 80fa 09bd
00000140: 611b 7b3c e2a3 c7bd 478f 953c a6c8 0a3b
00000150: 70b8 4ebd ac40 533d cd01 5a3d 895a b33c
00000160: 3077 c3bc 6a86 293d 5f20 573c 5390 683c
00000170: 8bed 99bd b830 0fbc 46bf 9a3d a26c 973d
00000180: 6e2a 3abc 9557 ebba 0f8d 673d 9f07 96bc
00000190: df96 94bd 82d7 733b 1691 7abd c995 f13c
000001a0: de17 8abd 0281 88bb 3e49 71bd 9827 9fbd
000001b0: 654a 183d c73a 8bbd 0f90 8c3d 28e5 46bb
000001c0: eabc 68bd 3278 b03b eebf f8bb dd55 b3bd
000001d0: 247b 6cbd ee92 90bd fcd0 11bd f63d 01bb
000001e0: a647 48bd 6c32 54bd be23 9dbd 7b38 d9bb
000001f0: 1a1c 143d a076 cdbd 20ce 2cbd 7075 ae3c
00000200: 606d 41bd fd90 dcbc 03c8 afbd 6714 673d
00000210: e821 a9bd 0e00 97bd 6963 973c 1c19 683d
00000220: 9727 00bd 7025 823d 7270 87bd 9a69 e6bc
00000230: db9f 18bd 960a 39bd d369 89bd d99d 963d
00000240: 794e 9bbd 32bb 8bbd 8878 b63d 4ced ffbb
00000250: 0ae4 5f3a ce08 073b 9248 8b3d 562b 39bc
00000260: eff4 63bd b901 0cbd 8184 22bd 390e 8abd
00000270: 62e8 123d 7fb5 723d f659 863d 6d94 d83c
00000280: 9fc6 b53c c8de 0a3d fc69 90bd d821 333d
00000290: 0fdb b83c 4b54 82bd d980 adbc 95aa 6e3d
000002a0: de23 623d 7016 aabd 4c3d 8fbd 394c 80bc
000002b0: afc3 55bc 0466 85bd 14a3 af3d 9b10 f23c
000002c0: f293 293d 8c92 783d c86e 9cbd 2b99 3dbc
000002d0: 9dd4 6dbc 218a 4a3d 1d65 ffbc bfb8 9c3c
000002e0: c585 903d e365 083c 3ea7 833b d78f 3b3d
000002f0: 5027 99bd 882c ef3b 764f 8f3d 3114 563d
00000300: 45f2 693d 0a6b a43d 4ac7 80bd a9f5 5bbd
00000310: 6cf7 b5bb f8a7 61bd 12ca 833d 50ee 94bd
00000320: a7b0 08bd 24a1 5f3d 0766 50bd 9239 053d
00000330: b93e 7cbd 088c 0cbd 07ef 92bc 65b7 2e3d
00000340: b70b 103d ab4c a93d 1045 253c 327d 0a3d
00000350: 2032 9dbd 43cf 913d aa90 173d 0479 a93d
00000360: 3fa7 0dbd 0ff4 9abc 998b 81bc bb8f 85bc
00000370: ae88 7b3d bc26 abbd 3354 8fbd c17e 38bd
00000380: 237b 0bbd fbcf 10bd f3dd be3b 35d6 883c
00000390: 553b 5abb 22f5 943d 046a b3bb 0c54 af3d
000003a0: 0a53 ccbc ed33 283b c3e8 4cbd 7ec0 663d
000003b0: 7915 11bd 5756 7a3b b351 9c3d b6bb adbc
000003c0: dc23 113c 4ea5 443d 48af 3d3b 2d2e fcbc
000003d0: 0542 823d 0ae5 81bb b01b 3b3c f5f5 b33d
000003e0: e8a6 ae3d eed1 da3c 0fa2 bbbc 8625 6c3c
000003f0: 4ff5 2e3d 0e3b ab3d 661c 1dbc 8869 cfbb
-0.049212307 0.008220866 -0.02014055 -0.06580398 -0.041005824 0.06820093 -0.057568565 -0.03746534
0.04703366 -0.06753471 -0.09168091 -0.020470707 0.038853463 -0.0055519873 0.054920804 0.010186974
0.07048225 -0.06749873 -0.014837467 0.06685095 0.036801483 0.067909166 -0.061408263 -0.09854543
-0.011355113 0.065401174 -0.0951076 -0.06504729 -0.058740243 -0.05901321 0.0065000015 -0.038964808
0.06369367 -0.044553645 0.029824091 0.015478254 0.09020858 -0.0356706 0.07678361 -0.089334674
-0.072196625 0.012870256 0.00972405 0.04242688 -0.083252825 -0.06396467 -0.006034176 -0.011125649
-0.061016034 -0.015633024 0.040365506 -0.030846864 0.020627083 0.009190413 -0.07500588 -0.061190266
-0.07709643 0.018852035 -0.057031672 -0.042085845 -0.0697655 -0.04857622 0.023816818 0.03413698
-0.012845028 -0.0068556266 0.030227657 0.066717565 -0.008923908 0.017093094 0.06929612 -0.040080972
-0.059534386 0.092092656 -0.059556562 -0.0026583713 -0.04771022 0.018784242 -0.054616448 -0.03368616
0.015326352 -0.09748055 0.018256797 0.0021176725 -0.050468862 0.051575348 0.053224374 0.021893756
-0.023860544 0.041387953 0.013130276 0.014194566 -0.07516011 -0.008739643 0.07556014 0.07393767
-0.011362655 -0.0017955179 0.05653101 -0.01831418 -0.07255339 0.003720731 -0.06117352 0.029490368
-0.067428336 -0.0041657696 -0.05890774 -0.07771224 0.037180323 -0.0679832 0.068634145 -0.003034899
-0.056820787 0.005385422 -0.007591239 -0.087566115 -0.057734624 -0.070592746 -0.035599694 -0.001972077
-0.048896454 -0.0518059 -0.07672833 -0.0066290474 0.036159612 -0.100323915 -0.042188764 0.021296233
-0.04722345 -0.026924605 -0.08583071 0.05641594 -0.0825842 -0.07373057 0.01848002 0.05666457
-0.031287756 0.06354797 -0.06613244 -0.028126527 -0.037261825 -0.04517611 -0.067096375 0.07354326
-0.07583327 -0.06822814 0.08909708 -0.0078102704 0.00085407554 0.0020604613 0.06800951 -0.011301836
-0.05565351 -0.03418133 -0.039677147 -0.06740994 0.03586615 0.05925512 0.065601274 0.026437962
0.022189436 0.033903867 -0.07051465 0.043733448 0.022565393 -0.06363734 -0.021179603 0.05826815
0.055209987 -0.08305061 -0.06994113 -0.015661346 -0.013047143 -0.065135986 0.085760266 0.029548934
0.041400857 0.060686633 -0.07638317 -0.011572163 -0.014516023 0.049448136 -0.031176144 0.019131063
0.070567645 0.008325073 0.0040177396 0.045791473 -0.074782014 0.0072990097 0.06997578 0.05226535
0.05711581 0.080282286 -0.06288011 -0.053701077 -0.0055531766 -0.055091828 0.06435026 -0.07272017
-0.033371594 0.054597035 -0.05087855 0.032525606 -0.061583254 -0.03431323 -0.017936243 0.042655367
0.035167422 0.082665764 0.010087267 0.0338108 -0.07675576 0.0711961 0.037003197 0.08275035
-0.034583326 -0.018915204 -0.015813636 -0.016303888 0.061409645 -0.08356997 -0.069984816 -0.045042757
-0.03405298 -0.035354596 0.0058247983 0.016703704 -0.0033299525 0.07273318 -0.0054752845 0.085609525
-0.02494194 0.0025665716 -0.050026666 0.05633592 -0.03542087 0.0038198435 0.076327704 -0.021207672
0.008858647 0.04800921 0.0028943587 -0.030783737 0.063602485 -0.003964071 0.011420175 0.08787147
0.085279286 0.02671143 -0.022904424 0.014413243 0.042714413 0.08360873 -0.00958929 -0.006329719

lstm.bias_ih_l0 f4 [512]
00000000: a6eb 43bd 5263 79bd 6876 fcbc d220 8b3d
00000010: d132 8cbc 4ee0 b23b 3207 333d 04ab 8bbd
00000020: ec83 5bbd dd11 51bd 790f 353d 710c a0bd
00000030: 584d 58bd df56 853d 5543 63bd 5148 c13c
00000040: 4100 7dbd dadc 99bc 9790 4dbb fb45 553d
00000050: e09a 8dbc 3717 1cbd 5745 b53d 1352 b33d
00000060: bbb6 b83d aab0 c03d 5c33 343d 10b3 ac3c
00000070: bb94 863d ef98 a4bd df4a b53c 6b87 793d
00000080: 7b74 273d 4135 0e3d 6395 7c3c 9271 37bd
00000090: 2da7 a53d ee30 893d 418f 993c 8415 813d
000000a0: 8609 2a3d 3bd2 be3c 9890 bd3d 21e4 b73d
000000b0: 90c4 d8bc 902a 6f3d 71f0 c33d b206 c23d
000000c0: 2db7 4f3d b861 5fbc 2bf1 6a3d aef0 06bc
000000d0: 0e69 a63c 5a49 bebc 8db1 6fbd dba3 2dbd
000000e0: 484f 3cbc b417 953d 6c43 8e3d 7ccb b7bc
000000f0: cd65 5abd 15b7 5cbd df54 a13d 7e1e 77bd
00000100: 2efe 233d 9284 80bd 2180 d93c 4bdc 863c
00000110: 2f27 ab3d 983e a33d 6360 a63d 3c53 283d
00000120: 3274 79bd b36c 46bd d1e5 f8bb 9bfd 0abd
00000130: eb26 e53c 0c4d fb3c 94e2 443c bc42 8a3d
00000140: f37e 29bd eb88 a53d 1d3b 453c c389 a43d
00000150: d0ba 2c3c dea0 c4bc 8a2a 2ebc f782 62bc
00000160: 0c31 01bd dacf a93d 951f ae3d 060c fb3c
00000170: 84cc b53d 0517 bb3b 8b78 773d 05c9 1f3b
00000180: 826d ca3d a6d1 093d b13a be3d e97d 293d
00000190: 648c 5e3d f616 39bc 5419 22bd af23 acbc
000001a0: 5864 28bd df37 55bc dcfc 3e3d 4b3c c73c
000001b0: d485 973d dd72 ac3d df17 2f3c 7713 8cbd
000001c0: a2d2 68bd ff13 633d e55e 26bd e424 573c
000001d0: ff86 61bd be61 053c b826 14bd ba97 f43c
000001e0: 4695 07bc 245b 8abd 4ce8 c53b fc53 5ebd
000001f0: 264b b53d f736 35bd cb52 c13d f207 123d
00000200: 14ee 873d f5df 53bd 6d0f a23c 8c92 ee3a
00000210: fccf f9bc aa80 e63c abe2 473d 3bff 863d
00000220: dcfe 663d 4643 1f3d bd2a 5e3c 72b8 993d
00000230: c9e9 843d 121c 5a3d add6 833d 7965 5abd
00000240: f105 a1bd 1824 70bd 9ef0 e2bc 95d1 863a
00000250: 1152 80bd 2820 38bd 01e2 6cbd db70 ecba
00000260: 0200 26bc 7566 9b3d 4d19 0e3d 0d0d b13d
00000270: 1f20 823d ebc5 063d b009 02bd 4ad2 773d
00000280: 5151 98bb 959a e13c e46b 683d a86f 77bc
00000290: 681b 433d 75a4 a13c 8208 b23c 0f3b 3c3d
000002a0: 1b0a e23c f182 443d a76c f33b e467 e43c
000002b0: e7b5 94bc 6c85 f73b 1fdf 47bd 5e72 a03d
000002c0: 11b8 983d 02b0 813c ad47 59bd 9672 673d
000002d0: 86c6 94bd c9b3 4cbd b1f4 b53d a4e2 903c
000002e0: 6e43 1c3d 241a 983d f987 89bd adbf f9bc
000002f0: 8f68 873d b651 88bd 361e 5e3c 2799 3d3d
00000300: 956c b63a 0460 1bbb e6ca c93c 6486 dfbc
00000310: 91af 37bd 5e39 913d c748 f7bc b2d5 e5bc
00000320: 141c 2dbc a301 713d 09c2 4a3d 0d5c 713c
00000330: e714 cc3c 6211 f93b 0cae 67bb 3eee 993d
00000340: fe90 433d b169 7bbd d0d4 83bc ca31 c13d
00000350: 6b6b 8fbd 7d20 df3c 52c9 9dbd 1fd6 693d
00000360: 8c6c 3fbd 425b ad3a 32ae 8d3c 1c22 70bc
00000370: 87cb a63d fb4f 10bd a2dc 71bc b979 6a3d
00000380: 08ae 0f3c 2f98 83bd 508a b53c 1a50 873d
00000390: d7ad 803d 76cb 6a3d 027c 073d b12e 9ebd
000003a0: 89e5 05bd 95a8 6ebb d713 c8bb b8e4 9ebd
000003b0: 08d0 4e3c a859 163d 42b8 8dbd 8350 2fbd
000003c0: ec64 35bd 6909 803c 7185 92bc 6ee4 45bd
000003d0: 9566 0c3d 467f 4bbc 1a81 8cbb 1950 94bb
000003e0: bd75 443c 08db cf3c 678f efbc a519 7a3d
000003f0: 7433 88bd f689 78bd 96be a03d 83f1 3a3c
-0.047832154 -0.060885735 -0.03081818 0.06793369 -0.017114075 0.005458868 0.043708034 -0.06819728
-0.053592607 -0.051042426 0.04420421 -0.07814873 -0.052808136 0.0651071 -0.055484135 0.023594053
-0.06176782 -0.018782068 -0.00313667 0.05206869 -0.017285764 -0.038108077 0.08851116 0.08755889
0.09019228 0.09408696 0.043994293 0.021081477 0.06571337 -0.08036982 0.022130428 0.06092016
0.04088257 0.034718756 0.015416476 -0.044786043 0.08088527 0.06698786 0.018745067 0.06302932
0.04151299 0.023293605 0.09256095 0.08979059 -0.026460916 0.0583902 0.09567345 0.09473933
0.0507118 -0.013634138 0.057358902 -0.008236093 0.020313766 -0.023228336 -0.058518935 -0.042392593
-0.0114935115 0.07279912 0.069464535 -0.022435896 -0.05331974 -0.053885538 0.07877516 -0.060331814
0.040037327 -0.06275286 0.026550354 0.016462466 0.08357083 0.07970923 0.08123853 0.041095003
-0.060901828 -0.048443507 -0.0075957556 -0.033933263 0.02797266 0.030676387 0.012016911 0.0675101
-0.041380834 0.08082756 0.0120380195 0.080340885 0.010542586 -0.024002489 -0.010630259 -0.01382517
-0.031540915 0.08291598 0.085021175 0.030645382 0.08876899 0.0057095313 0.060417693 0.0024381292
0.09884168 0.033647202 0.09288538 0.041379843 0.054333106 -0.011296978 -0.039574936 -0.021013109
-0.04111132 -0.013013809 0.046627864 0.024320742 0.073985726 0.08420346 0.010686844 -0.0683965
-0.0568415 0.05543899 -0.040617842 0.013131354 -0.055060383 0.008140979 -0.036169738 0.029857505
-0.008275336 -0.06755665 0.006039655 -0.054279312 0.08852224 -0.04424187 0.0943962 0.03565211
0.06637207 -0.051727254 0.019782746 0.0018201633 -0.030494682 0.028137524 0.04880015 0.0659165
0.056395397 0.038882516 0.013559994 0.07505883 0.064899035 0.053249426 0.064374305 -0.053319428
-0.07862461 -0.05862817 -0.027702626 0.0010285849 -0.06265653 -0.04495254 -0.05783272 -0.0018039005
-0.010131838 0.075879015 0.034692097 0.08645067 0.06353783 0.032903593 -0.03174752 0.06050328
-0.0046483655 0.02753953 0.056743518 -0.0151023045 0.04763356 0.01973174 0.021732572 0.04595476
0.02759271 0.047976438 0.007428724 0.02788157 -0.018153144 0.007553747 -0.04879677 0.07834314
0.07456983 0.015830997 -0.05304687 0.056505762 -0.07264428 -0.049976144 0.08884562 0.017686196
0.038150243 0.07426861 -0.06715388 -0.030486906 0.0661174 -0.0665621 0.013557008 0.046288636
0.0013917858 -0.0023708353 0.024632882 -0.027285762 -0.044845168 0.0709102 -0.03018607 -0.028056
-0.010565776 0.05883945 0.049501453 0.014731419 0.02491231 0.007600949 -0.0035351543 0.07516144
0.047745697 -0.061380092 -0.016092688 0.09433325 -0.0700291 0.027237171 -0.077044144 0.057088967
-0.046734378 0.001322605 0.017294977 -0.01465657 0.081442885 -0.035232525 -0.014762076 0.05724499
0.00876952 -0.06425511 0.02216068 0.06607075 0.06283157 0.05732294 0.033077247 -0.077237494
-0.032689605 -0.00364164 -0.0061058807 -0.077584684 0.012622841 0.036706597 -0.0691991 -0.04280139
-0.0442857 0.015629487 -0.017885895 -0.04831355 0.034277517 -0.012420481 -0.004287851 -0.00452615
0.011990962 0.025372997 -0.029243184 0.061059613 -0.06650439 -0.060678445 0.078488514 0.01141012

lstm.bias_hh_l0 f4 [512]
00000000: e4c4 1b3c ec56 61bd 6c7d a7bd bdf9 b63d
00000010: 1765 27bc 66d4 543d 5fca 9e3d 1768 73bd
00000020: 7dbc 793d 602a 583d 62cf dc3c 21dd 7e3d
00000030: 9c7c 2cbd b32a 443d 9122 543c ec26 8f3c
00000040: 4e1a 05bc 7a05 4d3d f839 993d dc79 e03b
00000050: e250 983d d696 22bc 1f4c b53d a7e7 5aba
00000060: a579 aa3d e0fb 63bd 16b9 84bd a13b c53d
00000070: c113 4f3d 8885 fb3c fb30 1fbd 739f 923d
00000080: a12a ba3c cc70 833d 35d4 163d 06ff e83c
00000090: 3013 4fbc fbd6 92bc bbad 99bd d6b8 383d
000000a0: 3b78 a13d 6d7a 89bc 38e4 c73d 8bb2 21bc
000000b0: e7a6 27bd b0f1 673d d30e 69bd a6b6 123d
000000c0: a5c9 c83d c85f c03d 774a 1cbb e248 dc3c
000000d0: 0ec9 92bb 980f bf3c 1e8e ad3d fdad b73d
000000e0: 866d f2bc b016 a43d bbd3 f53c c89b 6bbd
000000f0: 2e04 c3bc 469b 973d 3262 6ebd aa41 d23c
00000100: 71a0 8cbb 794b b43d 8b9a 6dbd cfd0 c53d
00000110: be19 5f3c 7b4f 163d 1a49 eabc e494 7cbd
00000120: 570e 97bc 0719 9a3c 0eda 31bd f880 8ebd
00000130: 6f5a 483d a17b 5c3d 319f a13d 72b3 2b3d
00000140: efce a33d 0b71 113a 07af c4bc ec5f 113d
00000150: b07b 423d c64f 6dbd bedf 2b3c 99c9 5bbd
00000160: bd1f 63bd 2c2c 043c c8b5 5e3d 502f 7abc
00000170: 6e24 a33d e37d 423b f8a0 8a3d 6974 c03d
00000180: a528 ee3c 5d22 7fbd 84e0 433b a2d7 c5bc
00000190: b29d 43bd 48b8 23bd c90e 323c e7fb b53c
000001a0: 09f5 b33d d99b 9d3d 8e83 433d 3f3d dc3c
000001b0: a881 18bd 8a73 16bd dff9 4c3d 293e 953c
000001c0: c9ef 24bc 2be5 3d3d b8a4 5e3d 3715 82bd
000001d0: 1813 bf3d 8e11 833d 1e3f c7bc cd0d 9f3d
000001e0: 5dfb 59bc 5fee 163c b479 c63a 90d1 8bbd
000001f0: a4e2 b63d 46a5 d9bc ea82 623d ab6d 22bd
00000200: 1a8c c33d f3dd ac3d 3258 afbd 0494 1e3d
00000210: 8c6d 543d 2f96 9f3d c6a6 bfbc a33c 813c
00000220: bc11 6cbd 6143 b13d 36dd 8a3d 5fef 253d
00000230: f4db f33c ae40 ffbc cc85 143d 7d25 fcbc
00000240: 83c4 163d a67f 57bd 4d8f bb3c 9042 77bd
00000250: 8da0 99bc 6c59 4bbd 610b 98bd f981 d63c
00000260: d479 8f3d 6e0d ab3d 6a8a ed3c 5fae 733d
00000270: e5a9 7abb 66fc 37bd 11aa 5c3d 959b 84bd
00000280: 5b17 f8bb 5cc2 283d e88a 7abc b964 afbd
00000290: 84d7 46bd 060e 483c f5e2 88bd 2602 973d
000002a0: 4583 763d 7d4f f6ba 1c4f 23bd ce2e e8bc
000002b0: a9c6 90bd ea4d 913a fd2a 7ebd f609 c03d
000002c0: fc35 1fbd f35e 2abd e466 883c 2d63 52bc
000002d0: 97f5 5c3d bca0 8ebd 8bed 42bc 398f a93d
000002e0: 9f41 80bd 7b63 863d 8b78 603d 8089 aa3d
000002f0: b1b9 48bd 2ce1 a5bd c1bf 963d cca5 993d
00000300: df32 943d fc6a 08bd c73e 09bd 2c63 a43d
00000310: 2c01 cd3c bc01 b1bd ed1c 2d3d 409a 9e3d
00000320: 3e2a 003d 50a6 443c 2783 75bd d55d 753c
00000330: 6e46 febc e180 03bd 7133 013d 9470 233d
00000340: 74b0 5cbd e61b 7abd 912c aebc 97df aa3b
00000350: 5ba5 06bd 71ef 2a3d 465c 223d e786 693d
00000360: b849 f4bc 2234 6d3d 90f6 bb3d 77b3 3a3c
00000370: 332a 2a3b 30c5 653d e072 1bbd dd5a 31bd
00000380: a8f7 b73d 7b6c c8bb 458c 4e3c 6768 ca3b
00000390: 43c2 383d facc cdbc 99ad 803c c12b 6d3d
000003a0: bfeb 463c 250c 75bd 1b7a bfbc c49a 2abd
000003b0: be52 c83c 7084 53bd 8e2a 58bd a537 6a3c
000003c0: 2104 823d c024 84bd d752 a83d 635a 9abc
000003d0: b976 b23d 730f f73c 5260 483d c975 083d
000003e0: f5c2 42bd 1c57 9b3c ab34 6cbd e61d a73d
000003f0: 8a4a 963b d9f1 d63b 4449 843d 2a27 67bd
0.009507392 -0.055014536 -0.08178219 0.089343525 -0.010216973 0.05196037 0.07753443 -0.05942544
0.060970772 0.052774787 0.026954357 0.062222604 -0.042111024 0.047892284 0.012947694 0.017474614
-0.008123947 0.05005405 0.0748176 0.0068504643 0.07437302 -0.009923657 0.088524096 -0.0008350559
0.08323983 -0.05566013 -0.06480615 0.09630514 0.05055595 0.030703321 -0.03886507 0.07159319
0.022725405 0.06417999 0.03682347 0.028441917 -0.012638852 -0.017924776 -0.075038396 0.04509815
0.0788426 -0.01678201 0.09760326 -0.009869228 -0.040930655 0.056626976 -0.056898903 0.03581872
0.09804086 0.09393269 -0.0023848095 0.026890222 -0.004479534 0.023322865 0.08474372 0.089687325
-0.02959324 0.0801214 0.030008188 -0.05752161 -0.023805704 0.07402663 -0.058199115 0.025666077
-0.004291587 0.08803458 -0.05800871 0.09658968 0.013616977 0.036696892 -0.02859931 -0.06166543
-0.018439455 0.018810762 -0.043420844 -0.069581926 0.04891437 0.05382884 0.078916915 0.04191918
0.07998454 0.0005548156 -0.02400924 0.03549187 0.04748124 -0.057937406 0.010490356 -0.053659055
-0.05545019 0.008067172 0.05437258 -0.015270069 0.07965933 0.0029677085 0.067689836 0.093972035
0.029072115 -0.06228863 0.002988846 -0.024150673 -0.04775781 -0.039970666 0.010867783 0.022214843
0.08786971 0.07695741 0.047732882 0.026884673 -0.037233025 -0.03673128 0.050042983 0.018218117
-0.010066935 0.04636113 0.054356307 -0.06351703 0.09329814 0.06399833 -0.024322089 0.07766304
-0.013304559 0.009212106 0.0015142472 -0.0682708 0.08929947 -0.026568066 0.05530063 -0.03965537
0.095482066 0.08440771 -0.08561744 0.038715377 0.051862285 0.07792317 -0.023394953 0.015775984
-0.0576341 0.0865543 0.06780474 0.040511485 0.029767968 -0.031158771 0.03626041 -0.030779595
0.036808502 -0.05261197 0.02289548 -0.060366213 -0.018753314 -0.049645826 -0.07424045 0.026185023
0.07005659 0.08352171 0.028996665 0.059492465 -0.0038248238 -0.04491844 0.053873125 -0.064749874
-0.0075711436 0.04120098 -0.015291907 -0.08564133 -0.048545375 0.012210375 -0.066839136 0.07373457
0.060183782 -0.0018792 -0.039870366 -0.02834263 -0.070691414 0.0011085842 -0.062052716 0.093769
-0.038869843 -0.041594457 0.016650625 -0.012841028 0.05394515 -0.069642514 -0.011897455 0.08279271
-0.06262516 0.06561943 0.05480246 0.08327007 -0.049005214 -0.08099589 0.07360793 0.07502326
0.072362654 -0.033305153 -0.033507135 0.08026728 0.025024973 -0.08642909 0.042263914 0.077442646
0.031290285 0.012002543 -0.05993953 0.014975985 -0.031039443 -0.03210533 0.0315432 0.039902285
-0.053879216 -0.061061762 -0.021261485 0.0052146423 -0.03287254 0.041732255 0.03963878 0.05701342
-0.029820308 0.057911046 0.091778874 0.011395327 0.0025965094 0.056096256 -0.03795135 -0.043299545
0.089827836 -0.0061164475 0.012606685 0.0061769965 0.045107137 -0.025122155 0.015707778 0.057903055
0.012141167 -0.059826035 -0.023373654 -0.041651502 0.024453517 -0.051639974 -0.05277496 0.014295493
0.06348444 -0.06452322 0.082189254 -0.018841928 0.08714051 0.030158734 0.048919983 0.033315454
-0.047549207 0.018962435 -0.057667416 0.081599995 0.0045865225 0.006559592 0.06459287 -0.056433834

lstm.weight_ih_l1 f4 [512, 128]
00000000: 5816 c93d f074 15bd 4f4b 42bd 4a4f b2bc
00000010: 9ba5 903b 79b3 babb 177b ba3c 6ccb d23b
00000020: 1552 793d 691f e5bc f2f4 8fbd f820 34bd
00000030: 2f45 05bd 3bf8 95bb fc64 f8bc c0f7 aabd
00000040: 6c0d 07b8 b99f ba3c 7099 aebd 6a13 aebc
00000050: 0220 653c fff2 8ebd a460 9dbd af95 cd3a
00000060: 39f4 c8bb 9d30 a23d 204d 163d e7e0 173d
00000070: 1f7d a13d 2046 c8bc 0e1b 9bbc 14b6 923d
00000080: 5b0f 813c 21b8 87bd 334b 593d 613c 463c
00000090: b671 a13d 8997 543b e8fc 6abd 2916 68bc
000000a0: d4bc b4bc 0bf1 d73c f87c c13d 3cde 313d
000000b0: 99db 62bc 6f48 833d 16f0 2abd d4ac 8fbd
000000c0: 21fd 5dbd 7aa7 74bd e59f 58bd 0a5b 543d
000000d0: fcf9 60bd d72b 953d f234 d6bc 97b3 0c3d
000000e0: da4f 9e3b da56 973d c141 98bc e371 8a3d
000000f0: 654c 84bd d0d4 9d3c 4c50 9dbb 0e98 b63c
00000100: b1ca ec3a 0538 a9bd 604b 98bd 3f83 9fbd
00000110: fb11 d1bd b416 0c3d 6f94 07bc d3bd d4bd
00000120: 1583 aa3b f6e2 55bd 7fac f1bc 12a5 903d
00000130: dbc6 7dbd 0ac1 5ebb 51e9 8b3c 061f a73d
00000140: 00bf e73b 624f c63c 8826 013c 63bd 3dbc
00000150: 9b66 65bd 5b15 4abb 868f 85bc 555c 8cbd
00000160: 4b52 96bd ae66 9ebd b8fb 693d 4818 9ebd
00000170: 33b0 483d 9951 893d 896f 743c f7b0 853d
00000180: 5523 98bd 0683 88bd 22c7 983c 4ba6 b6bd
00000190: c554 6d3d a1f8 03bd 913d cc3c 99fe 91bd
000001a0: 09f8 8cbd ea59 13bc c175 293d ab3e 57bd
000001b0: 0554 063d 41c2 b83c 5cde 323c 077a 3b3d
000001c0: 5212 8abb 52b8 af3c 6281 8cbd 98a6 4dbd
000001d0: 6cac 7e3d 36c0 3fbd 376c 8b3d 46fe 42bd
000001e0: 0023 9cbb 1fd9 96bd 2b5f 67bc 4bab 5ebd
000001f0: 383a b83b b4fd 8e3a 8065 26bd ee0e 963d
00000200: 9341 28bd 742e ba3d 9798 253d 0126 a4ba
00000210: 863e 883d 4f44 bc3c 32d0 763d 1343 5c3d
00000220: 6efe 0dbd a23e b8bc 8666 2f3c 2ec5 c43c
00000230: 154a d43c dfb4 7ebd 62a0 9bbd 9f95 3ebc
00000240: eea9 653d 4d05 c93c 2aa1 49bb e0a9 71bd
00000250: bac5 2cbd d36f afbd dc4d 99bd c63e 113c
00000260: b095 843c dd6b 553d 3425 46bd e6bd 07bd
00000270: c3d3 3bbd baf2 99bc 9e62 81bc 4a58 8d3b
00000280: 6dbf b33c e60f 473d 88c4 34bd b57d 90bd
00000290: aaa5 863d e6d6 b93b e407 3b3d b578 82bd
000002a0: 1b7e 8abd 41b7 623b 36cc 0cbd e740 afbc
000002b0: 39e7 08bc 1d69 36bd 836d 563d 6394 b13d
000002c0: c364 95bc 967f 3b3d e72c 283d 48f3 05bb
000002d0: c537 db3c 2581 b1b9 f9c2 b23d 6a63 543c
000002e0: 3290 85bd 2f33 6bbd 735b 353d fb20 a53d
000002f0: 2e6c 663d e211 85bd c450 c03d c92a a8bd
00000300: f753 b1bd a9ff 923d f823 e2bc b399 afbb
00000310: 66c9 883d cde6 b93c be2e 993d b383 913d
00000320: 20a9 afbd bb5e 893d 1032 623d 0c73 573d
00000330: b977 babd 534c 41bc aa0b 153d 9f5a 2dbd
00000340: 2ba2 32bd e7be 103d 300b a43d c76e a5bd
00000350: 8d27 bbbd 58e5 c53d 9019 d8bc ecd9 bf3d
00000360: 0567 873d 900b 443d 3cba 173d 5a1c 67bd
00000370: 18ab b0bd af9d 573d 0b41 3bbd 4fc4 87bd
00000380: f7aa fbba ede9 583d 87f0 06bd ce92 cd3b
00000390: 7a53 06bd 8c70 b2bd 3b76 633d 81f7 21bd
000003a0: 9dbc f1bc 0bfb 98bd 2b57 a33d aadf 963d
000003b0: 45d3 623c bd45 cabd 84f6 173d c138 10bd
000003c0: efa6 973d bf63 873d dde9 c0bd 465e 783d
000003d0: 7ce9 803d e543 acbd b22a 22bd 6c04 47bd
000003e0: 83a4 a73c a235 8cbc fe17 a4bd a909 2d3d
000003f0: e8fe 363d dea4 823d 0dee 90bd cf3f 93bd
0.09818715 -0.036488473 -0.0474351 -0.021766324 0.004414273 -0.0056976643 0.022763772 0.006432941
0.060869295 -0.02796908 -0.070291415 -0.043976754 -0.03253668 -0.0045767105 -0.03032159 -0.08348036
-3.219901e-05 0.02278124 -0.0852536 -0.021249492 0.013984682 -0.069799416 -0.07684448 0.0015684868
-0.0061326292 0.079194285 0.036694646 0.037079718 0.07885193 -0.0244475 -0.0189338 0.07163635
0.015754392 -0.06626917 0.05305023 0.012099356 0.07883017 0.0032438955 -0.057370096 -0.01416544
-0.022062697 0.026360055 0.09447664 0.04342483 -0.0138463015 0.064103 -0.04173287 -0.07015386
-0.05419648 -0.05973003 -0.052886862 0.051844634 -0.054925904 0.072837524 -0.026148293 0.034350958
0.0048312964 0.073896125 -0.018586041 0.067600034 -0.064598836 0.019266516 -0.004800832 0.022289302
0.0018065778 -0.08262638 -0.07436252 -0.07788705 -0.102085076 0.03420134 -0.008275135 -0.103877686
0.0052036145 -0.0522184 -0.029501198 0.07062735 -0.06195722 -0.0033989572 0.017079027 0.08160214
0.0070723295 0.024207775 0.007882722 -0.011580798 -0.056006055 -0.0030835483 -0.016303789 -0.068535484
-0.07339915 -0.07734428 0.057124823 -0.07719475 0.04899616 0.06705017 0.01491917 0.06527894
-0.07428614 -0.06665616 0.018649641 -0.089184366 0.05794217 -0.032219533 0.0249317 -0.07128639
-0.068832465 -0.008993605 0.041372065 -0.05255 0.03279497 0.022553565 0.010917272 0.04577067
-0.0042136097 0.021450195 -0.06860615 -0.050207704 0.062176153 -0.046814166 0.0680775 -0.047605775
-0.0047649145 -0.07365631 -0.014121811 -0.054362576 0.0056221746 0.001090935 -0.04062414 0.07327066
-0.04107816 0.090908915 0.040428724 -0.0012523533 0.066525504 0.02298179 0.060257144 0.053774904
-0.03466647 -0.022490803 0.010705596 0.024019804 0.025914231 -0.06218421 -0.0759895 -0.011632352
0.05607026 0.02453866 -0.0030766227 -0.058999896 -0.042180754 -0.08566251 -0.074855536 0.008865064
0.016184658 0.05210482 -0.048375323 -0.033140086 -0.04585625 -0.018792499 -0.015794095 0.0043135034
0.021941865 0.048599146 -0.04413274 -0.07055227 0.06574567 0.00567137 0.045661822 -0.06370679
-0.06762334 0.003459409 -0.03437444 -0.021393253 -0.008355909 -0.044533838 0.052350532 0.08670881
-0.018236523 0.045775972 0.041058447 -0.0020439196 0.026759991 -0.0003385629 0.08728594 0.012963155
-0.06521644 -0.05742186 0.044276666 0.08062931 0.056255512 -0.064975515 0.09390405 -0.082112856
-0.08658593 0.071776696 -0.027605042 -0.0053588985 0.06679039 0.022693062 0.074796185 0.07105198
-0.0857718 0.067075215 0.055223525 0.05259995 -0.091048665 -0.011797982 0.036388077 -0.04232275
-0.043611687 0.03533831 0.08009946 -0.0807777 -0.09138403 0.096628845 -0.026379377 0.09367737
0.06611446 0.04786259 0.03704284 -0.056423523 -0.086263835 0.052640613 -0.045716327 -0.0662924
-0.0019200732 0.052957464 -0.03294423 0.006273604 -0.032794453 -0.08712873 0.055532675 -0.03954268
-0.029508883 -0.07469758 0.0797561 0.07366879 0.013844316 -0.09876583 0.03710033 -0.035210375
0.07404887 0.06610822 -0.09419606 0.06063678 0.062945336 -0.08411387 -0.0395915 -0.0485882
0.020464187 -0.017115418 -0.08012389 0.04224554 0.04467669 0.06379102 -0.070766546 -0.07189905

lstm.weight_hh_l1 f4 [512, 128]
00000000: 9742 eebc d37a 7ebc 17e8 3d3c af2c 78bc
00000010: 3a44 863d 31f4 393c e92e 82bd 7f37 2d3d
00000020: b1c0 97bc 61d1 1ebd b659 08bd 93d7 793c
00000030: 0a34 863d 32cd 2cbb a73a 543b 9ab6 a2bd
00000040: 2df7 50bd 76ad ebbc 4bb3 c0bd f0e7 aabc
00000050: e2ca abbc 0e9e fcbc 1786 37bd d772 973d
00000060: 2149 b2bd 8050 5d3c 6014 d73c d6c5 7e3d
00000070: dbe0 2d3d beb8 a3bd eda3 49bd 2311 c7bd
00000080: 1cbb a43c d7ca bcbd 6ddb 5ebd e900 a93c
00000090: 2d1e 893d c146 61bd 2ce1 8a3c 0163 b7b9
000000a0: 9248 8e3d f4f1 b4bd 1d6e 443d 732b c4bd
000000b0: c5c6 a63d 3fe1 25bd 0795 c33c 9ff8 59bd
000000c0: 9617 afbc bf22 4d3d 76ba 8b3d ab26 e53c
000000d0: ab21 59bd bcdd 9f3d 1b9d 75bd a01c 993d
000000e0: 23be b63d 8e2c 91bd bc7c 083c e937 39bc
000000f0: ee11 8dbd d49f cdbc 155f 4bbd 9240 97bd
00000100: 2b7b cc3d ef8b 79bc 0d7e 33bd 52a5 97bd
00000110: 49ac bcbc b0fd 81bd 49f3 9a3d 1673 483c
00000120: 7655 5ebd d07a 6ebd d883 853d 763f fd3c
00000130: b092 62bc 8114 4b3d 3d3a 2abd 0be1 733d
00000140: 31ab 83bd 5648 4fbd 4d44 713d 7e94 533d
00000150: d4ed 6cbc fd91 873d 6f8a b7bc 728d 55bd
00000160: aec8 553a d8a9 a93d e73d b2bc 070a 46bd
00000170: 99a0 bdbc 25b6 153b f4cb b03d acfb 59bd
00000180: ce3d 4c3d bf38 0d3d b259 bbbb ef41 683b
00000190: 4c95 98bd 8bd2 93bc 268e 6bbd 89b4 173c
000001a0: 1b4b 253d 4a63 b8bc 8716 b63d 87b7 efbb
000001b0: 73e1 6abd 1e79 c4bd 7aa2 4f3d 6c2f aebd
000001c0: 337e 503d fab4 983c 1092 b43d b9bc 84bd
000001d0: 5231 56bd 2b8f 713d 38ad a7bd 87bf d6bc
000001e0: 1f6e 75ba c7a0 b4bd 0dc2 acbd 6787 13bd
000001f0: fb03 c83d 489c 9dbd bb5b 3b3d aa02 12bd
00000200: 05b9 0dbd ff8c 793d 0a45 27bd b5cb 3ebd
00000210: df12 743d eda2 bfba efc6 3abb 8b3d 9cbd
00000220: 17e9 2bbb 6df3 073d f7ec 31bd 2fda 76bc
00000230: de3e 38bd 9769 a5bd a064 b63b 4a2e 993c
00000240: b177 74bd 24ab 02bd af8f ffba b14f 9fbd
00000250: dd45 663d 8f8c ac3d 8698 d8bb 55fc 973d
00000260: 9dbd 2b3d 978a af3d ab48 ba3c eb25 f4bc
00000270: d83c 283d 8be1 873d 3b83 f33b 4cdb c73b
00000280: 0509 8a3d 0c4c 2d3d 70c5 9b3c e8d4 86bc
00000290: fbd1 d7bc 4cda 203d b2d0 11bd 7e79 8a3d
000002a0: ce62 843d 137e 823d 58be bcbc 59d6 babc
000002b0: f024 f1bb e716 b13d 56f8 b2bd 8114 283d
000002c0: 2189 c93b ceb2 213d ead1 68bd ad1d 6e3d
000002d0: 7f88 6dbd 0c3f 52bd 45a9 49bd bef9 c4bc
000002e0: 89dc 0a3d b696 0cbd 9007 993d d0e6 bd3d
000002f0: 92e5 fabc 0b79 a6bd 7609 6bbd c7e7 d63c
00000300: 8af3 25bb 3a3c 553c ede0 033c c656 7f3c
00000310: 2303 bd3d 73dc 1c3d 8d25 03bb 2cf4 693d
00000320: ab02 933d 16ca a0bd 0713 13bd 4f83 433d
00000330: a720 9d3d 3c81 893c f2fa 433d 512a 9d3c
00000340: 3de4 6b3d b666 103a 9b61 5d3d defe ba3d
00000350: 45af 02bc 9304 48bc c8dc 7f3d d5b3 6fbd
00000360: 6f48 953d 84d9 20bd 75d9 043c 6faf 093b
00000370: 843c 13bd ef5d 92bd 559b a8bc 9053 fcb9
00000380: 9001 8ebb aa53 30bd 030e 6abc f73a 4e3d
00000390: a3f4 fcbc 3732 313c 7d25 833c 28d6 2fbd
000003a0: df73 14bd b282 623d a4a5 3e3b a28d 54bc
000003b0: 0bf0 34bc 56a9 48bd cea1 9a3c e1a3 ccbd
000003c0: ad74 2b3d 0742 a53d 9261 98bd d18d 043d
000003d0: 6691 44bb ea7f 583d d33a 593c 971f 68bd
000003e0: 37bb 9bbc ebed 983d 4b41 abbd 5b6f 2abd
000003f0: 59b0 833d ef8d acbd c8f5 90bd 10cc c83d
-0.029084487 -0.015532213 0.011590979 -0.015147372 0.06555982 0.011349724 -0.06356604 0.042289253
-0.0185245 -0.038773898 -0.03328868 0.015249151 0.065528944 -0.0026367423 0.0032383592 -0.07944985
-0.051016975 -0.028769236 -0.094091974 -0.02086255 -0.020970766 -0.030837085 -0.044805612 0.07394951
-0.087053545 0.013507962 0.026254833 0.06220039 0.042450767 -0.07994221 -0.049228597 -0.097200654
0.020108752 -0.09218376 -0.05440848 0.020630317 0.06695209 -0.054999117 0.016953073 -0.00034978244
0.069474354 -0.088352114 0.047956575 -0.095786 0.08143381 -0.040498015 0.023874773 -0.05321562
-0.021373551 0.050081965 0.06822674 0.02797254 -0.053010624 0.07805964 -0.05996428 0.07476163
0.089229845 -0.07088576 0.00833052 -0.011304834 -0.068881854 -0.025100626 -0.049651224 -0.07385363
0.0998443 -0.015231117 -0.043821383 -0.07404579 -0.02303137 -0.06347215 0.07565934 0.01223447
-0.05428072 -0.058222592 0.06519288 0.03091405 -0.013828918 0.0495801 -0.041559447 0.05954079
-0.064291365 -0.050606094 0.058903027 0.051655285 -0.0144609995 0.06619642 -0.022404877 -0.052136846
0.0008155209 0.08284348 -0.021758033 -0.048349407 -0.023147868 0.0022844162 0.08632651 -0.05321853
0.04986363 0.034477945 -0.0057174796 0.003543969 -0.07450351 -0.01804473 -0.05750861 0.0092593515
0.04035483 -0.022508282 0.088910155 -0.0073155793 -0.05734391 -0.09593414 0.05069206 -0.08505139
0.050901603 0.018640984 0.08816922 -0.064813085 -0.05229313 0.058974426 -0.08187336 -0.026214374
-0.00093624176 -0.08819728 -0.0843545 -0.0360178 0.09766384 -0.07695824 0.045741778 -0.035647072
-0.034600276 0.06092548 -0.040837325 -0.04658099 0.05958831 -0.0014620699 -0.0028499921 -0.07628926
-0.0026231462 0.033191133 -0.043438878 -0.015066667 -0.04498183 -0.0807678 0.0055661947 0.01869883
-0.05968446 -0.031901494 -0.0019497777 -0.07778872 0.05621897 0.08425247 -0.006609979 0.074211754
0.041928876 0.08571356 0.022739729 -0.029803237 0.04107365 0.06634816 0.0074314154 0.0060991403
0.067400016 0.042308852 0.019015044 -0.016458943 -0.026345244 0.039270684 -0.035599418 0.06761454
0.06464158 0.06371703 -0.023039982 -0.022807287 -0.0073591396 0.086469464 -0.087387726 0.04103518
0.0061503802 0.039477162 -0.056840815 0.05813377 -0.0579915 -0.051329657 -0.049233694 -0.024044868
0.033901725 -0.034323417 0.074721456 0.092725396 -0.030627046 -0.08128556 -0.05738207 0.026233567
-0.0025322163 0.013014847 0.008049232 0.015584653 0.09229114 0.038296174 -0.0020011396 0.057117626
0.07178243 -0.07851045 -0.035906818 0.047732648 0.076722436 0.016785257 0.047846742 0.019185217
0.05759071 0.0005508469 0.054048162 0.09130643 -0.007976358 -0.012208122 0.062466413 -0.05852111
0.07289206 -0.03926994 0.008108486 0.0021009108 -0.035946384 -0.07146823 -0.02058188 -0.00048127444
-0.0043336824 -0.04304854 -0.014285567 0.050349202 -0.03087837 0.010815195 0.016009087 -0.042928845
-0.036243316 0.055300422 0.0029090429 -0.012973221 -0.011043559 -0.048989616 0.018875983 -0.09992195
0.041859318 0.08069234 -0.07440485 0.03236181 -0.002999389 0.052856363 0.013258654 -0.05667075
-0.01901017 0.07467254 -0.08362063 -0.041610103 0.0643012 -0.08425509 -0.07078129 0.09804547

lstm.bias_ih_l1 f4 [512]
00000000: fa08 3fbb 7dc7 6f3d 5c0f 57bd 7ee1 b93d
00000010: 0f8a aabc 9607 06bd 3516 8a3d f547 81bd
00000020: dd8d 5b3b df02 87bd 4626 973d 7a21 063c
00000030: 39a9 073d d31d 97bd d889 353d 0f5a ddbc
00000040: dbcd 6cbb 3e22 02bc 4a49 883d d56b 763d
00000050: cc03 173c 5c39 0b3d e96e 4cbd f84c 383d
00000060: a1ea b83d 5af7 70b9 f6ae e13c 8c3b 46bc
00000070: a358 ca3d 6f7e 12bd 469f 843d f1ff 113c
00000080: de40 93bd 853d 07bd d68e e23c ceec 6fbd
00000090: 14fc 49bd 0c2e d33a cbfe ab3d 6e86 943d
000000a0: aa55 9d3d 0434 123c ed72 273d 7cff a63c
000000b0: 0eb4 aa3d 0e44 c23d 8cc0 4b3d 16f3 973d
000000c0: f7f8 863b e02a 04bb 96d0 60bd c2e6 8b3b
000000d0: b4aa 753c fe34 f03c c412 a2bc 6130 c2bc
000000e0: ef06 22bd 4079 05bd 275d ba3d 7be7 18bd
000000f0: 7f12 503c 40f5 88bd f240 01bd b9dc bf3d
00000100: f2b7 803d f3f0 813d e036 84bc 8635 883d
00000110: e6c4 8f3d 4b07 8f3c 176f 4dbd 1880 1c3c
00000120: 4abd dabc 2217 283d d99b 423d e4d8 333d
00000130: ad27 4cbd 8965 c03d b5cd c2bc dc86 a13d
00000140: 518f 773d 099a 3bbd 55ec 05ba 4478 53bd
00000150: 94ef 283a 16e8 1e3d 18bc ce3d d1de 79bd
00000160: a382 01bd 8b91 9abd 05e3 103c 2952 c3bc
00000170: 113f 8fbd bd8d b93c e90d b83d fda6 9a3d
00000180: 4be9 65bd 4e70 123a dcc7 9c3c 2ca2 88bd
00000190: 58c1 b53d dcce 7dbd 09aa 65b9 1ccc 7e3d
000001a0: 5da4 853d b8bd 8dbc 4783 65bc 6236 ecbc
000001b0: d95f 2b3d 9664 953d ee01 95bd e52b 2b3c
000001c0: 794d 33bd 357a dc3c 3291 b43c dc44 7c3c
000001d0: 60dd 86bc caa3 35bd 2761 c53d 7918 b53d
000001e0: 3e13 213d 2ea8 6e3d be9c 483d 199f a93d
000001f0: 67ed 2d3d 0f1f 7b3d 69f2 a03d f9f1 85bd
00000200: 017f 153d 493a 103d b5ac f9bc d7f4 bc3c
00000210: 8ac4 f8bc b5e0 9a3d 09e9 873d 98e5 8d3d
00000220: f34f acbc ec84 2b3d 19a7 8bbb dd47 ab3d
00000230: ce7a 933d a850 2abd b72e 173d 8f3d 00bd
00000240: 3711 1e3d 3fb1 27bd d232 5cbd a984 0cbd
00000250: ba5a 203d e382 d1bc cc28 413d 9874 acbb
00000260: b94a 9a3d 1c45 a63c 2741 4c3d d0df 923d
00000270: 6115 793d e31a 653d 08f9 febc 1bb5 953d
00000280: 050f 8dbd 370b 21bd 21ed ab3d 3534 973d
00000290: b893 513d a988 1cbc 0629 54bd ba84 3c3b
000002a0: eb07 9fbd 28f1 ac3d 526e 813d 8493 ddbc
000002b0: bf3f a33d c365 3c3d baf9 513d e1ac 9cbb
000002c0: e007 c83b aa86 3fbd 4f04 eb3c 360e 643c
000002d0: 0a74 843d abef 92bc 3280 77bd 7166 233c
000002e0: f8a5 b5bd 7f14 0abd 411f b23d 9cd7 04bd
000002f0: 3c4f ab3d 5793 9c3c f86c a93d 978f bb3c
00000300: fca8 493c ec53 6e3c f26e d03a d514 1d3d
00000310: edc7 d9bb 06b6 c6bc 2b86 e8bc 00f8 353d
00000320: d2f1 843c 9ef2 e0b9 3501 bc3d bfda 803c
00000330: 55c9 953d 92b8 8fbd bce5 94bd 4aaa 583d
00000340: 4fc9 73bc 6988 2ebd 3d47 d23c e57b a0bd
00000350: 1804 ed3c a713 883d 135d c43d 475e 32bc
00000360: 6284 3ebd ed1d ad3d 45c2 66bd 625d 06bd
00000370: 0db3 573d b0bd d6bc 9cf7 f2bb 92d6 4e3d
00000380: b8b0 8ebd 6995 403d 2aad 6fbd 906e 98bd
00000390: 1d08 c43d 7545 a23d 9dfb 7b3d 6aa0 52bd
000003a0: 3eb8 9f3d 1c83 3f3d cda4 8e3d 36ca 68bd
000003b0: 2f31 25bd 56e6 b83d b067 cd3c 6e0a 6dbd
000003c0: 11ee 8a3d 35d6 d4bc 653d 5e3d 5751 64bc
000003d0: 0b98 aa3b 69c1 423b bdce 463a ec4d 103c
000003e0: 625c b63d 7078 0bbc 903e eebc d345 5d3c
000003f0: 85af 9c3d c917 b23d 68ac e6bc 1de5 9d3d
-0.0029149638 0.058539856 -0.052504882 0.09076212 -0.020817785 -0.03272208 0.06742517 -0.06312553
0.0033501305 -0.065923445 0.07380347 0.008186692 0.033120368 -0.073787354 0.04432091 -0.027020482
-0.0036133442 -0.007942734 0.06654604 0.06016143 0.009217214 0.03399025 -0.04991046 0.044995278
0.09029127 -0.00022980329 0.027549248 -0.012099158 0.09880187 -0.035765108 0.064756915 0.008911119
-0.07190107 -0.033017654 0.027656 -0.058575444 -0.049312666 0.0016111745 0.08398207 0.07252203
0.07682355 0.008923534 0.040881086 0.020385496 0.08335124 0.09485637 0.049744174 0.07419412
0.0041190344 -0.0020167157 -0.054886423 0.004269452 0.014994312 0.029322144 -0.019784339 -0.02370471
-0.039557394 -0.032586336 0.09099799 -0.037330132 0.012699722 -0.06687403 -0.031556077 0.093682714
0.06285085 0.063447855 -0.016139448 0.06650834 0.07019977 0.017459532 -0.05015477 0.009552024
-0.026701588 0.041037686 0.04751191 0.043908015 -0.049842525 0.09394366 -0.02377973 0.078870505
0.06043941 -0.045801196 -0.00051087636 -0.051628366 0.00064443913 0.038795553 0.1009447 -0.06100351
-0.031618726 -0.07547291 0.008843188 -0.023842888 -0.06994451 0.022650594 0.08987028 0.07551382
-0.05613069 0.0005586193 0.01913827 -0.06671557 0.08874768 -0.061964855 -0.00021902485 0.062206373
0.065254904 -0.017302379 -0.01400835 -0.028834525 0.041839454 0.07294576 -0.07275759 0.010447477
-0.043775056 0.026913742 0.02204189 0.015397277 -0.016462982 -0.044345655 0.09637671 0.088425584
0.03932499 0.058265857 0.048977606 0.082822986 0.042462733 0.061308917 0.07858736 -0.06540293
0.036498073 0.035211835 -0.030477861 0.023065967 -0.030367155 0.07562391 0.06636245 0.06928557
-0.021034217 0.04187481 -0.004261863 0.08363316 0.072011575 -0.041580826 0.036909785 -0.031308707
0.038590636 -0.04094052 -0.053759404 -0.034306202 0.039149024 -0.025575107 0.047158048 -0.0052629225
0.075337835 0.020296626 0.04986682 0.07171595 0.060811404 0.055933844 -0.031124607 0.07309934
-0.068876304 -0.039317336 0.08394838 0.073830046 0.051166266 -0.009554067 -0.051796935 0.0028765635
-0.07765182 0.084444344 0.0631987 -0.02704788 0.07971143 0.045995485 0.05126355 -0.004781351
0.0061044544 -0.046759285 0.028688578 0.013919404 0.06467445 -0.017936548 -0.06042499 0.009973154
-0.08869547 -0.033710953 0.086973675 -0.032432184 0.08364722 0.019113226 0.08272737 0.022895617
0.012308355 0.014546376 0.0015902205 0.038349945 -0.0066461475 -0.024256717 -0.028384289 0.044425964
0.01622859 -0.00042905373 0.09179918 0.015729306 0.07313792 -0.07017626 -0.07270381 0.052896775
-0.014879539 -0.04261056 0.025668735 -0.07836131 0.028932616 0.066443734 0.09588065 -0.010886735
-0.04651297 0.084529735 -0.056337614 -0.0328039 0.05266099 -0.026213497 -0.0074147712 0.0504976
-0.069673 0.04701749 -0.05851475 -0.07442963 0.0957186 0.07923404 0.061519254 -0.051422514
0.07798813 0.046755895 0.06965027 -0.05683347 -0.04033011 0.09028308 0.025073856 -0.057871275
0.06783689 -0.025981048 0.05425777 -0.013935409 0.005206113 0.0029717332 0.0007583907 0.0088076405
0.089043394 -0.008512601 -0.029082566 0.013505417 0.07650665 0.08695943 -0.028158382 0.077097155
